<?xml version="1.0"?>
<net name="torch_jit" version="11">
	<layers>
		<layer id="0" name="images" type="Parameter" version="opset1">
			<data shape="1,3,626,1622" element_type="f32" />
			<rt_info>
				<attribute name="old_api_map_element_type" version="0" value="f16" />
			</rt_info>
			<output>
				<port id="0" precision="FP32" names="images">
					<dim>1</dim>
					<dim>3</dim>
					<dim>626</dim>
					<dim>1622</dim>
				</port>
			</output>
		</layer>
		<layer id="1" name="Constant_11490_compressed" type="Const" version="opset1">
			<data element_type="f16" shape="" offset="0" size="2" />
			<output>
				<port id="0" precision="FP16" />
			</output>
		</layer>
		<layer id="2" name="Constant_11490" type="Convert" version="opset1">
			<data destination_type="f32" />
			<rt_info>
				<attribute name="decompression" version="0" />
			</rt_info>
			<input>
				<port id="0" precision="FP16" />
			</input>
			<output>
				<port id="1" precision="FP32" />
			</output>
		</layer>
		<layer id="3" name="Constant_15117_compressed" type="Const" version="opset1">
			<data element_type="f16" shape="1, 3, 1, 1" offset="2" size="6" />
			<output>
				<port id="0" precision="FP16">
					<dim>1</dim>
					<dim>3</dim>
					<dim>1</dim>
					<dim>1</dim>
				</port>
			</output>
		</layer>
		<layer id="4" name="Constant_15117" type="Convert" version="opset1">
			<data destination_type="f32" />
			<rt_info>
				<attribute name="decompression" version="0" />
			</rt_info>
			<input>
				<port id="0" precision="FP16">
					<dim>1</dim>
					<dim>3</dim>
					<dim>1</dim>
					<dim>1</dim>
				</port>
			</input>
			<output>
				<port id="1" precision="FP32">
					<dim>1</dim>
					<dim>3</dim>
					<dim>1</dim>
					<dim>1</dim>
				</port>
			</output>
		</layer>
		<layer id="5" name="Subtract_15118" type="Subtract" version="opset1">
			<data auto_broadcast="numpy" />
			<rt_info>
				<attribute name="preprocessing" version="0" />
			</rt_info>
			<input>
				<port id="0" precision="FP32">
					<dim>1</dim>
					<dim>3</dim>
					<dim>626</dim>
					<dim>1622</dim>
				</port>
				<port id="1" precision="FP32">
					<dim>1</dim>
					<dim>3</dim>
					<dim>1</dim>
					<dim>1</dim>
				</port>
			</input>
			<output>
				<port id="2" precision="FP32">
					<dim>1</dim>
					<dim>3</dim>
					<dim>626</dim>
					<dim>1622</dim>
				</port>
			</output>
		</layer>
		<layer id="6" name="Constant_101883_compressed" type="Const" version="opset1">
			<data element_type="f16" shape="1, 3, 1, 1" offset="8" size="6" />
			<output>
				<port id="0" precision="FP16">
					<dim>1</dim>
					<dim>3</dim>
					<dim>1</dim>
					<dim>1</dim>
				</port>
			</output>
		</layer>
		<layer id="7" name="Constant_101883" type="Convert" version="opset1">
			<data destination_type="f32" />
			<rt_info>
				<attribute name="decompression" version="0" />
			</rt_info>
			<input>
				<port id="0" precision="FP16">
					<dim>1</dim>
					<dim>3</dim>
					<dim>1</dim>
					<dim>1</dim>
				</port>
			</input>
			<output>
				<port id="1" precision="FP32">
					<dim>1</dim>
					<dim>3</dim>
					<dim>1</dim>
					<dim>1</dim>
				</port>
			</output>
		</layer>
		<layer id="8" name="Divide_15120" type="Multiply" version="opset1">
			<data auto_broadcast="numpy" />
			<rt_info>
				<attribute name="preprocessing" version="0" />
			</rt_info>
			<input>
				<port id="0" precision="FP32">
					<dim>1</dim>
					<dim>3</dim>
					<dim>626</dim>
					<dim>1622</dim>
				</port>
				<port id="1" precision="FP32">
					<dim>1</dim>
					<dim>3</dim>
					<dim>1</dim>
					<dim>1</dim>
				</port>
			</input>
			<output>
				<port id="2" precision="FP32">
					<dim>1</dim>
					<dim>3</dim>
					<dim>626</dim>
					<dim>1622</dim>
				</port>
			</output>
		</layer>
		<layer id="9" name="Constant_293" type="Const" version="opset1">
			<data element_type="i64" shape="" offset="14" size="8" />
			<output>
				<port id="0" precision="I64" />
			</output>
		</layer>
		<layer id="10" name="Constant_294" type="Const" version="opset1">
			<data element_type="i64" shape="1" offset="22" size="8" />
			<output>
				<port id="0" precision="I64">
					<dim>1</dim>
				</port>
			</output>
		</layer>
		<layer id="11" name="/Split" type="VariadicSplit" version="opset1">
			<input>
				<port id="0" precision="FP32">
					<dim>1</dim>
					<dim>3</dim>
					<dim>626</dim>
					<dim>1622</dim>
				</port>
				<port id="1" precision="I64" />
				<port id="2" precision="I64">
					<dim>1</dim>
				</port>
			</input>
			<output>
				<port id="3" precision="FP32" names="/Split_output_0">
					<dim>1</dim>
					<dim>3</dim>
					<dim>626</dim>
					<dim>1622</dim>
				</port>
			</output>
		</layer>
		<layer id="12" name="Constant_296" type="Const" version="opset1">
			<data element_type="u64" shape="1" offset="14" size="8" />
			<output>
				<port id="0" precision="U64">
					<dim>1</dim>
				</port>
			</output>
		</layer>
		<layer id="13" name="/Squeeze" type="Squeeze" version="opset1">
			<input>
				<port id="0" precision="FP32">
					<dim>1</dim>
					<dim>3</dim>
					<dim>626</dim>
					<dim>1622</dim>
				</port>
				<port id="1" precision="U64">
					<dim>1</dim>
				</port>
			</input>
			<output>
				<port id="2" precision="FP32" names="/Squeeze_output_0">
					<dim>3</dim>
					<dim>626</dim>
					<dim>1622</dim>
				</port>
			</output>
		</layer>
		<layer id="14" name="/transform/Constant_compressed" type="Const" version="opset1">
			<data element_type="f16" shape="3, 1, 1" offset="30" size="6" />
			<output>
				<port id="0" precision="FP16">
					<dim>3</dim>
					<dim>1</dim>
					<dim>1</dim>
				</port>
			</output>
		</layer>
		<layer id="15" name="/transform/Constant" type="Convert" version="opset1">
			<data destination_type="f32" />
			<rt_info>
				<attribute name="decompression" version="0" />
			</rt_info>
			<input>
				<port id="0" precision="FP16">
					<dim>3</dim>
					<dim>1</dim>
					<dim>1</dim>
				</port>
			</input>
			<output>
				<port id="1" precision="FP32" names="/transform/Constant_output_0">
					<dim>3</dim>
					<dim>1</dim>
					<dim>1</dim>
				</port>
			</output>
		</layer>
		<layer id="16" name="/transform/Sub" type="Subtract" version="opset1">
			<data auto_broadcast="numpy" />
			<input>
				<port id="0" precision="FP32">
					<dim>3</dim>
					<dim>626</dim>
					<dim>1622</dim>
				</port>
				<port id="1" precision="FP32">
					<dim>3</dim>
					<dim>1</dim>
					<dim>1</dim>
				</port>
			</input>
			<output>
				<port id="2" precision="FP32" names="/transform/Sub_output_0">
					<dim>3</dim>
					<dim>626</dim>
					<dim>1622</dim>
				</port>
			</output>
		</layer>
		<layer id="17" name="Constant_101896_compressed" type="Const" version="opset1">
			<data element_type="f16" shape="3, 1, 1" offset="36" size="6" />
			<output>
				<port id="0" precision="FP16">
					<dim>3</dim>
					<dim>1</dim>
					<dim>1</dim>
				</port>
			</output>
		</layer>
		<layer id="18" name="Constant_101896" type="Convert" version="opset1">
			<data destination_type="f32" />
			<rt_info>
				<attribute name="decompression" version="0" />
			</rt_info>
			<input>
				<port id="0" precision="FP16">
					<dim>3</dim>
					<dim>1</dim>
					<dim>1</dim>
				</port>
			</input>
			<output>
				<port id="1" precision="FP32">
					<dim>3</dim>
					<dim>1</dim>
					<dim>1</dim>
				</port>
			</output>
		</layer>
		<layer id="19" name="/transform/Div" type="Multiply" version="opset1">
			<data auto_broadcast="numpy" />
			<input>
				<port id="0" precision="FP32">
					<dim>3</dim>
					<dim>626</dim>
					<dim>1622</dim>
				</port>
				<port id="1" precision="FP32">
					<dim>3</dim>
					<dim>1</dim>
					<dim>1</dim>
				</port>
			</input>
			<output>
				<port id="2" precision="FP32" names="/transform/Div_output_0">
					<dim>3</dim>
					<dim>626</dim>
					<dim>1622</dim>
				</port>
			</output>
		</layer>
		<layer id="20" name="Constant_320" type="Const" version="opset1">
			<data element_type="i64" shape="1" offset="14" size="8" />
			<output>
				<port id="0" precision="I64">
					<dim>1</dim>
				</port>
			</output>
		</layer>
		<layer id="21" name="/transform/Unsqueeze" type="Unsqueeze" version="opset1">
			<input>
				<port id="0" precision="FP32">
					<dim>3</dim>
					<dim>626</dim>
					<dim>1622</dim>
				</port>
				<port id="1" precision="I64">
					<dim>1</dim>
				</port>
			</input>
			<output>
				<port id="2" precision="FP32" names="/transform/Unsqueeze_output_0">
					<dim>1</dim>
					<dim>3</dim>
					<dim>626</dim>
					<dim>1622</dim>
				</port>
			</output>
		</layer>
		<layer id="22" name="/transform/Shape" type="ShapeOf" version="opset3">
			<data output_type="i64" />
			<input>
				<port id="0" precision="FP32">
					<dim>1</dim>
					<dim>3</dim>
					<dim>626</dim>
					<dim>1622</dim>
				</port>
			</input>
			<output>
				<port id="1" precision="I64" names="/transform/Shape_output_0">
					<dim>4</dim>
				</port>
			</output>
		</layer>
		<layer id="23" name="/transform/Constant_9" type="Const" version="opset1">
			<data element_type="i64" shape="1" offset="14" size="8" />
			<output>
				<port id="0" precision="I64" names="/transform/Constant_9_output_0">
					<dim>1</dim>
				</port>
			</output>
		</layer>
		<layer id="24" name="/transform/Constant_10" type="Const" version="opset1">
			<data element_type="i64" shape="1" offset="42" size="8" />
			<output>
				<port id="0" precision="I64" names="/transform/Constant_10_output_0">
					<dim>1</dim>
				</port>
			</output>
		</layer>
		<layer id="25" name="Broadcast_343" type="Const" version="opset1">
			<data element_type="i64" shape="1" offset="22" size="8" />
			<output>
				<port id="0" precision="I64">
					<dim>1</dim>
				</port>
			</output>
		</layer>
		<layer id="26" name="/transform/Slice" type="StridedSlice" version="opset1">
			<data begin_mask="0" end_mask="0" new_axis_mask="" shrink_axis_mask="" ellipsis_mask="" />
			<input>
				<port id="0" precision="I64">
					<dim>4</dim>
				</port>
				<port id="1" precision="I64">
					<dim>1</dim>
				</port>
				<port id="2" precision="I64">
					<dim>1</dim>
				</port>
				<port id="3" precision="I64">
					<dim>1</dim>
				</port>
			</input>
			<output>
				<port id="4" precision="I64" names="/transform/Slice_output_0">
					<dim>2</dim>
				</port>
			</output>
		</layer>
		<layer id="27" name="/transform/Cast_5" type="Const" version="opset1">
			<data element_type="i64" shape="2" offset="50" size="16" />
			<output>
				<port id="0" precision="I64" names="/transform/Cast_5_output_0">
					<dim>2</dim>
				</port>
			</output>
		</layer>
		<layer id="28" name="/transform/Concat_1" type="Concat" version="opset1">
			<data axis="0" />
			<input>
				<port id="0" precision="I64">
					<dim>2</dim>
				</port>
				<port id="1" precision="I64">
					<dim>2</dim>
				</port>
			</input>
			<output>
				<port id="2" precision="I64" names="/transform/Concat_1_output_0">
					<dim>4</dim>
				</port>
			</output>
		</layer>
		<layer id="29" name="Convert_366" type="Convert" version="opset1">
			<data destination_type="f32" />
			<input>
				<port id="0" precision="I64">
					<dim>4</dim>
				</port>
			</input>
			<output>
				<port id="1" precision="FP32">
					<dim>4</dim>
				</port>
			</output>
		</layer>
		<layer id="30" name="Convert_365" type="Convert" version="opset1">
			<data destination_type="f32" />
			<input>
				<port id="0" precision="I64">
					<dim>4</dim>
				</port>
			</input>
			<output>
				<port id="1" precision="FP32">
					<dim>4</dim>
				</port>
			</output>
		</layer>
		<layer id="31" name="Divide_367" type="Divide" version="opset1">
			<data auto_broadcast="numpy" m_pythondiv="true" />
			<input>
				<port id="0" precision="FP32">
					<dim>4</dim>
				</port>
				<port id="1" precision="FP32">
					<dim>4</dim>
				</port>
			</input>
			<output>
				<port id="2" precision="FP32">
					<dim>4</dim>
				</port>
			</output>
		</layer>
		<layer id="32" name="Constant_103647" type="Const" version="opset1">
			<data element_type="f32" shape="1" offset="66" size="4" />
			<output>
				<port id="0" precision="FP32">
					<dim>1</dim>
				</port>
			</output>
		</layer>
		<layer id="33" name="Add_369" type="Add" version="opset1">
			<data auto_broadcast="numpy" />
			<input>
				<port id="0" precision="FP32">
					<dim>4</dim>
				</port>
				<port id="1" precision="FP32">
					<dim>1</dim>
				</port>
			</input>
			<output>
				<port id="2" precision="FP32">
					<dim>4</dim>
				</port>
			</output>
		</layer>
		<layer id="34" name="/transform/Resize" type="Interpolate" version="opset4">
			<data mode="linear_onnx" shape_calculation_mode="sizes" coordinate_transformation_mode="half_pixel" nearest_mode="floor" antialias="false" pads_begin="0, 0, 0, 0" pads_end="0, 0, 0, 0" cube_coeff="-0.75" />
			<input>
				<port id="0" precision="FP32">
					<dim>1</dim>
					<dim>3</dim>
					<dim>626</dim>
					<dim>1622</dim>
				</port>
				<port id="1" precision="I64">
					<dim>4</dim>
				</port>
				<port id="2" precision="FP32">
					<dim>4</dim>
				</port>
			</input>
			<output>
				<port id="3" precision="FP32" names="/transform/Resize_output_0">
					<dim>1</dim>
					<dim>3</dim>
					<dim>514</dim>
					<dim>1333</dim>
				</port>
			</output>
		</layer>
		<layer id="35" name="/Constant" type="Const" version="opset1">
			<data element_type="i64" shape="" offset="14" size="8" />
			<output>
				<port id="0" precision="I64" names="/Constant_output_0" />
			</output>
		</layer>
		<layer id="36" name="Constant_654" type="Const" version="opset1">
			<data element_type="i64" shape="" offset="14" size="8" />
			<output>
				<port id="0" precision="I64" />
			</output>
		</layer>
		<layer id="37" name="/transform/Gather" type="Gather" version="opset8">
			<data batch_dims="0" />
			<input>
				<port id="0" precision="FP32">
					<dim>1</dim>
					<dim>3</dim>
					<dim>514</dim>
					<dim>1333</dim>
				</port>
				<port id="1" precision="I64" />
				<port id="2" precision="I64" />
			</input>
			<output>
				<port id="3" precision="FP32" names="/transform/Gather_output_0">
					<dim>3</dim>
					<dim>514</dim>
					<dim>1333</dim>
				</port>
			</output>
		</layer>
		<layer id="38" name="/transform/Unsqueeze_12" type="Const" version="opset1">
			<data element_type="i64" shape="1" offset="14" size="8" />
			<output>
				<port id="0" precision="I64" names="/transform/Unsqueeze_12_output_0">
					<dim>1</dim>
				</port>
			</output>
		</layer>
		<layer id="39" name="/transform/Shape_2" type="ShapeOf" version="opset3">
			<data output_type="i64" />
			<input>
				<port id="0" precision="FP32">
					<dim>3</dim>
					<dim>514</dim>
					<dim>1333</dim>
				</port>
			</input>
			<output>
				<port id="1" precision="I64" names="/transform/Shape_1_output_0,/transform/Shape_2_output_0,/transform/Shape_3_output_0">
					<dim>3</dim>
				</port>
			</output>
		</layer>
		<layer id="40" name="Constant_80719" type="Const" version="opset1">
			<data element_type="i64" shape="1" offset="42" size="8" />
			<output>
				<port id="0" precision="I64">
					<dim>1</dim>
				</port>
			</output>
		</layer>
		<layer id="41" name="Constant_662" type="Const" version="opset1">
			<data element_type="i64" shape="" offset="14" size="8" />
			<output>
				<port id="0" precision="I64" />
			</output>
		</layer>
		<layer id="42" name="/transform/Gather_2" type="Gather" version="opset8">
			<data batch_dims="0" />
			<input>
				<port id="0" precision="I64">
					<dim>3</dim>
				</port>
				<port id="1" precision="I64">
					<dim>1</dim>
				</port>
				<port id="2" precision="I64" />
			</input>
			<output>
				<port id="3" precision="I64" names="/transform/Concat_4_output_0,/transform/Unsqueeze_5_output_0">
					<dim>1</dim>
				</port>
			</output>
		</layer>
		<layer id="43" name="/transform/Cast_10" type="Convert" version="opset1">
			<data destination_type="f32" />
			<input>
				<port id="0" precision="I64">
					<dim>1</dim>
				</port>
			</input>
			<output>
				<port id="1" precision="FP32" names="/transform/Cast_10_output_0">
					<dim>1</dim>
				</port>
			</output>
		</layer>
		<layer id="44" name="Constant_687" type="Const" version="opset1">
			<data element_type="i64" shape="1" offset="14" size="8" />
			<output>
				<port id="0" precision="I64">
					<dim>1</dim>
				</port>
			</output>
		</layer>
		<layer id="45" name="/transform/ReduceMax_3" type="ReduceMax" version="opset1">
			<data keep_dims="false" />
			<input>
				<port id="0" precision="FP32">
					<dim>1</dim>
				</port>
				<port id="1" precision="I64">
					<dim>1</dim>
				</port>
			</input>
			<output>
				<port id="2" precision="FP32" names="/transform/ReduceMax_3_output_0" />
			</output>
		</layer>
		<layer id="46" name="/transform/Cast_11" type="Convert" version="opset1">
			<data destination_type="i64" />
			<input>
				<port id="0" precision="FP32" />
			</input>
			<output>
				<port id="1" precision="I64" names="/transform/Cast_11_output_0" />
			</output>
		</layer>
		<layer id="47" name="/transform/Cast_14" type="Convert" version="opset1">
			<data destination_type="f32" />
			<input>
				<port id="0" precision="I64" />
			</input>
			<output>
				<port id="1" precision="FP32" names="/transform/Cast_14_output_0" />
			</output>
		</layer>
		<layer id="48" name="Constant_101909" type="Const" version="opset1">
			<data element_type="f32" shape="" offset="70" size="4" />
			<output>
				<port id="0" precision="FP32" />
			</output>
		</layer>
		<layer id="49" name="/transform/Div_2" type="Multiply" version="opset1">
			<data auto_broadcast="numpy" />
			<input>
				<port id="0" precision="FP32" />
				<port id="1" precision="FP32" />
			</input>
			<output>
				<port id="2" precision="FP32" names="/transform/Div_2_output_0" />
			</output>
		</layer>
		<layer id="50" name="/transform/Ceil_1" type="Ceiling" version="opset1">
			<input>
				<port id="0" precision="FP32" />
			</input>
			<output>
				<port id="1" precision="FP32" names="/transform/Ceil_1_output_0" />
			</output>
		</layer>
		<layer id="51" name="/transform/Constant_20" type="Const" version="opset1">
			<data element_type="f32" shape="" offset="74" size="4" />
			<output>
				<port id="0" precision="FP32" names="/transform/Constant_20_output_0" />
			</output>
		</layer>
		<layer id="52" name="/transform/Mul_5" type="Multiply" version="opset1">
			<data auto_broadcast="numpy" />
			<input>
				<port id="0" precision="FP32" />
				<port id="1" precision="FP32" />
			</input>
			<output>
				<port id="2" precision="FP32" names="/transform/Mul_5_output_0" />
			</output>
		</layer>
		<layer id="53" name="/transform/Cast_15" type="Convert" version="opset1">
			<data destination_type="i64" />
			<input>
				<port id="0" precision="FP32" />
			</input>
			<output>
				<port id="1" precision="I64" names="/transform/Cast_15_output_0" />
			</output>
		</layer>
		<layer id="54" name="/transform/Constant_14" type="Const" version="opset1">
			<data element_type="i64" shape="" offset="42" size="8" />
			<output>
				<port id="0" precision="I64" names="/transform/Constant_14_output_0" />
			</output>
		</layer>
		<layer id="55" name="/transform/Gather_20" type="Gather" version="opset8">
			<data batch_dims="0" />
			<input>
				<port id="0" precision="I64">
					<dim>3</dim>
				</port>
				<port id="1" precision="I64" />
				<port id="2" precision="I64" />
			</input>
			<output>
				<port id="3" precision="I64" names="/transform/Gather_2_output_0" />
			</output>
		</layer>
		<layer id="56" name="/transform/Sub_3" type="Subtract" version="opset1">
			<data auto_broadcast="numpy" />
			<input>
				<port id="0" precision="I64" />
				<port id="1" precision="I64" />
			</input>
			<output>
				<port id="2" precision="I64" names="/transform/Sub_3_output_0" />
			</output>
		</layer>
		<layer id="57" name="Constant_722" type="Const" version="opset1">
			<data element_type="i64" shape="1" offset="14" size="8" />
			<output>
				<port id="0" precision="I64">
					<dim>1</dim>
				</port>
			</output>
		</layer>
		<layer id="58" name="/transform/Unsqueeze_13" type="Unsqueeze" version="opset1">
			<input>
				<port id="0" precision="I64" />
				<port id="1" precision="I64">
					<dim>1</dim>
				</port>
			</input>
			<output>
				<port id="2" precision="I64" names="/transform/Unsqueeze_13_output_0">
					<dim>1</dim>
				</port>
			</output>
		</layer>
		<layer id="59" name="/transform/Unsqueeze_14" type="Const" version="opset1">
			<data element_type="i64" shape="1" offset="14" size="8" />
			<output>
				<port id="0" precision="I64" names="/transform/Unsqueeze_14_output_0">
					<dim>1</dim>
				</port>
			</output>
		</layer>
		<layer id="60" name="Constant_80728" type="Const" version="opset1">
			<data element_type="i64" shape="1" offset="22" size="8" />
			<output>
				<port id="0" precision="I64">
					<dim>1</dim>
				</port>
			</output>
		</layer>
		<layer id="61" name="Constant_658" type="Const" version="opset1">
			<data element_type="i64" shape="" offset="14" size="8" />
			<output>
				<port id="0" precision="I64" />
			</output>
		</layer>
		<layer id="62" name="/transform/Gather_1" type="Gather" version="opset8">
			<data batch_dims="0" />
			<input>
				<port id="0" precision="I64">
					<dim>3</dim>
				</port>
				<port id="1" precision="I64">
					<dim>1</dim>
				</port>
				<port id="2" precision="I64" />
			</input>
			<output>
				<port id="3" precision="I64" names="/transform/Concat_3_output_0,/transform/Unsqueeze_4_output_0">
					<dim>1</dim>
				</port>
			</output>
		</layer>
		<layer id="63" name="/transform/Cast_8" type="Convert" version="opset1">
			<data destination_type="f32" />
			<input>
				<port id="0" precision="I64">
					<dim>1</dim>
				</port>
			</input>
			<output>
				<port id="1" precision="FP32" names="/transform/Cast_8_output_0">
					<dim>1</dim>
				</port>
			</output>
		</layer>
		<layer id="64" name="Constant_680" type="Const" version="opset1">
			<data element_type="i64" shape="1" offset="14" size="8" />
			<output>
				<port id="0" precision="I64">
					<dim>1</dim>
				</port>
			</output>
		</layer>
		<layer id="65" name="/transform/ReduceMax_2" type="ReduceMax" version="opset1">
			<data keep_dims="false" />
			<input>
				<port id="0" precision="FP32">
					<dim>1</dim>
				</port>
				<port id="1" precision="I64">
					<dim>1</dim>
				</port>
			</input>
			<output>
				<port id="2" precision="FP32" names="/transform/ReduceMax_2_output_0" />
			</output>
		</layer>
		<layer id="66" name="/transform/Cast_9" type="Convert" version="opset1">
			<data destination_type="i64" />
			<input>
				<port id="0" precision="FP32" />
			</input>
			<output>
				<port id="1" precision="I64" names="/transform/Cast_9_output_0" />
			</output>
		</layer>
		<layer id="67" name="/transform/Cast_12" type="Convert" version="opset1">
			<data destination_type="f32" />
			<input>
				<port id="0" precision="I64" />
			</input>
			<output>
				<port id="1" precision="FP32" names="/transform/Cast_12_output_0" />
			</output>
		</layer>
		<layer id="68" name="Constant_101922" type="Const" version="opset1">
			<data element_type="f32" shape="" offset="70" size="4" />
			<output>
				<port id="0" precision="FP32" />
			</output>
		</layer>
		<layer id="69" name="/transform/Div_1" type="Multiply" version="opset1">
			<data auto_broadcast="numpy" />
			<input>
				<port id="0" precision="FP32" />
				<port id="1" precision="FP32" />
			</input>
			<output>
				<port id="2" precision="FP32" names="/transform/Div_1_output_0" />
			</output>
		</layer>
		<layer id="70" name="/transform/Ceil" type="Ceiling" version="opset1">
			<input>
				<port id="0" precision="FP32" />
			</input>
			<output>
				<port id="1" precision="FP32" names="/transform/Ceil_output_0" />
			</output>
		</layer>
		<layer id="71" name="/transform/Constant_18" type="Const" version="opset1">
			<data element_type="f32" shape="" offset="74" size="4" />
			<output>
				<port id="0" precision="FP32" names="/transform/Constant_18_output_0" />
			</output>
		</layer>
		<layer id="72" name="/transform/Mul_4" type="Multiply" version="opset1">
			<data auto_broadcast="numpy" />
			<input>
				<port id="0" precision="FP32" />
				<port id="1" precision="FP32" />
			</input>
			<output>
				<port id="2" precision="FP32" names="/transform/Mul_4_output_0" />
			</output>
		</layer>
		<layer id="73" name="/transform/Cast_13" type="Convert" version="opset1">
			<data destination_type="i64" />
			<input>
				<port id="0" precision="FP32" />
			</input>
			<output>
				<port id="1" precision="I64" names="/transform/Cast_13_output_0" />
			</output>
		</layer>
		<layer id="74" name="/transform/Constant_13" type="Const" version="opset1">
			<data element_type="i64" shape="" offset="22" size="8" />
			<output>
				<port id="0" precision="I64" names="/transform/Constant_13_output_0" />
			</output>
		</layer>
		<layer id="75" name="/transform/Gather_10" type="Gather" version="opset8">
			<data batch_dims="0" />
			<input>
				<port id="0" precision="I64">
					<dim>3</dim>
				</port>
				<port id="1" precision="I64" />
				<port id="2" precision="I64" />
			</input>
			<output>
				<port id="3" precision="I64" names="/transform/Gather_1_output_0" />
			</output>
		</layer>
		<layer id="76" name="/transform/Sub_2" type="Subtract" version="opset1">
			<data auto_broadcast="numpy" />
			<input>
				<port id="0" precision="I64" />
				<port id="1" precision="I64" />
			</input>
			<output>
				<port id="2" precision="I64" names="/transform/Sub_2_output_0" />
			</output>
		</layer>
		<layer id="77" name="Constant_726" type="Const" version="opset1">
			<data element_type="i64" shape="1" offset="14" size="8" />
			<output>
				<port id="0" precision="I64">
					<dim>1</dim>
				</port>
			</output>
		</layer>
		<layer id="78" name="/transform/Unsqueeze_15" type="Unsqueeze" version="opset1">
			<input>
				<port id="0" precision="I64" />
				<port id="1" precision="I64">
					<dim>1</dim>
				</port>
			</input>
			<output>
				<port id="2" precision="I64" names="/transform/Unsqueeze_15_output_0">
					<dim>1</dim>
				</port>
			</output>
		</layer>
		<layer id="79" name="/transform/Unsqueeze_16" type="Const" version="opset1">
			<data element_type="i64" shape="1" offset="14" size="8" />
			<output>
				<port id="0" precision="I64" names="/transform/Unsqueeze_16_output_0">
					<dim>1</dim>
				</port>
			</output>
		</layer>
		<layer id="80" name="Constant_80737" type="Const" version="opset1">
			<data element_type="i64" shape="1" offset="14" size="8" />
			<output>
				<port id="0" precision="I64">
					<dim>1</dim>
				</port>
			</output>
		</layer>
		<layer id="81" name="Constant_666" type="Const" version="opset1">
			<data element_type="i64" shape="" offset="14" size="8" />
			<output>
				<port id="0" precision="I64" />
			</output>
		</layer>
		<layer id="82" name="/transform/Gather_3" type="Gather" version="opset8">
			<data batch_dims="0" />
			<input>
				<port id="0" precision="I64">
					<dim>3</dim>
				</port>
				<port id="1" precision="I64">
					<dim>1</dim>
				</port>
				<port id="2" precision="I64" />
			</input>
			<output>
				<port id="3" precision="I64" names="/transform/Concat_2_output_0,/transform/Unsqueeze_3_output_0">
					<dim>1</dim>
				</port>
			</output>
		</layer>
		<layer id="83" name="/transform/Cast_6" type="Convert" version="opset1">
			<data destination_type="f32" />
			<input>
				<port id="0" precision="I64">
					<dim>1</dim>
				</port>
			</input>
			<output>
				<port id="1" precision="FP32" names="/transform/Cast_6_output_0">
					<dim>1</dim>
				</port>
			</output>
		</layer>
		<layer id="84" name="Constant_672" type="Const" version="opset1">
			<data element_type="i64" shape="1" offset="14" size="8" />
			<output>
				<port id="0" precision="I64">
					<dim>1</dim>
				</port>
			</output>
		</layer>
		<layer id="85" name="/transform/ReduceMax_1" type="ReduceMax" version="opset1">
			<data keep_dims="false" />
			<input>
				<port id="0" precision="FP32">
					<dim>1</dim>
				</port>
				<port id="1" precision="I64">
					<dim>1</dim>
				</port>
			</input>
			<output>
				<port id="2" precision="FP32" names="/transform/ReduceMax_1_output_0" />
			</output>
		</layer>
		<layer id="86" name="/transform/Cast_7" type="Convert" version="opset1">
			<data destination_type="i64" />
			<input>
				<port id="0" precision="FP32" />
			</input>
			<output>
				<port id="1" precision="I64" names="/transform/Cast_7_output_0" />
			</output>
		</layer>
		<layer id="87" name="/transform/Constant_15" type="Const" version="opset1">
			<data element_type="i64" shape="" offset="14" size="8" />
			<output>
				<port id="0" precision="I64" names="/transform/Constant_15_output_0" />
			</output>
		</layer>
		<layer id="88" name="/transform/Gather_30" type="Gather" version="opset8">
			<data batch_dims="0" />
			<input>
				<port id="0" precision="I64">
					<dim>3</dim>
				</port>
				<port id="1" precision="I64" />
				<port id="2" precision="I64" />
			</input>
			<output>
				<port id="3" precision="I64" names="/transform/Gather_3_output_0" />
			</output>
		</layer>
		<layer id="89" name="/transform/Sub_1" type="Subtract" version="opset1">
			<data auto_broadcast="numpy" />
			<input>
				<port id="0" precision="I64" />
				<port id="1" precision="I64" />
			</input>
			<output>
				<port id="2" precision="I64" names="/transform/Sub_1_output_0" />
			</output>
		</layer>
		<layer id="90" name="Constant_730" type="Const" version="opset1">
			<data element_type="i64" shape="1" offset="14" size="8" />
			<output>
				<port id="0" precision="I64">
					<dim>1</dim>
				</port>
			</output>
		</layer>
		<layer id="91" name="/transform/Unsqueeze_17" type="Unsqueeze" version="opset1">
			<input>
				<port id="0" precision="I64" />
				<port id="1" precision="I64">
					<dim>1</dim>
				</port>
			</input>
			<output>
				<port id="2" precision="I64" names="/transform/Unsqueeze_17_output_0">
					<dim>1</dim>
				</port>
			</output>
		</layer>
		<layer id="92" name="/transform/Concat_6" type="Concat" version="opset1">
			<data axis="0" />
			<input>
				<port id="0" precision="I64">
					<dim>1</dim>
				</port>
				<port id="1" precision="I64">
					<dim>1</dim>
				</port>
				<port id="2" precision="I64">
					<dim>1</dim>
				</port>
				<port id="3" precision="I64">
					<dim>1</dim>
				</port>
				<port id="4" precision="I64">
					<dim>1</dim>
				</port>
				<port id="5" precision="I64">
					<dim>1</dim>
				</port>
			</input>
			<output>
				<port id="6" precision="I64" names="/transform/Cast_16_output_0,/transform/Concat_6_output_0,/transform/Concat_7_output_0">
					<dim>6</dim>
				</port>
			</output>
		</layer>
		<layer id="93" name="/transform/Constant_24" type="Const" version="opset1">
			<data element_type="i64" shape="2" offset="78" size="16" />
			<output>
				<port id="0" precision="I64" names="/transform/Constant_24_output_0">
					<dim>2</dim>
				</port>
			</output>
		</layer>
		<layer id="94" name="/transform/Reshape" type="Reshape" version="opset1">
			<data special_zero="true" />
			<input>
				<port id="0" precision="I64">
					<dim>6</dim>
				</port>
				<port id="1" precision="I64">
					<dim>2</dim>
				</port>
			</input>
			<output>
				<port id="2" precision="I64" names="/transform/Reshape_output_0">
					<dim>3</dim>
					<dim>2</dim>
				</port>
			</output>
		</layer>
		<layer id="95" name="/transform/Constant_26" type="Const" version="opset1">
			<data element_type="i64" shape="1" offset="94" size="8" />
			<output>
				<port id="0" precision="I64" names="/transform/Constant_26_output_0">
					<dim>1</dim>
				</port>
			</output>
		</layer>
		<layer id="96" name="/transform/Constant_27" type="Const" version="opset1">
			<data element_type="i64" shape="1" offset="102" size="8" />
			<output>
				<port id="0" precision="I64" names="/transform/Constant_27_output_0">
					<dim>1</dim>
				</port>
			</output>
		</layer>
		<layer id="97" name="/transform/Constant_28" type="Const" version="opset1">
			<data element_type="i64" shape="1" offset="94" size="8" />
			<output>
				<port id="0" precision="I64" names="/transform/Constant_28_output_0">
					<dim>1</dim>
				</port>
			</output>
		</layer>
		<layer id="98" name="/transform/Slice_1" type="StridedSlice" version="opset1">
			<data begin_mask="0" end_mask="0" new_axis_mask="" shrink_axis_mask="" ellipsis_mask="" />
			<input>
				<port id="0" precision="I64">
					<dim>3</dim>
					<dim>2</dim>
				</port>
				<port id="1" precision="I64">
					<dim>1</dim>
				</port>
				<port id="2" precision="I64">
					<dim>1</dim>
				</port>
				<port id="3" precision="I64">
					<dim>1</dim>
				</port>
			</input>
			<output>
				<port id="4" precision="I64" names="/transform/Slice_1_output_0">
					<dim>3</dim>
					<dim>2</dim>
				</port>
			</output>
		</layer>
		<layer id="99" name="Constant_784" type="Const" version="opset1">
			<data element_type="i64" shape="2" offset="110" size="16" />
			<output>
				<port id="0" precision="I64">
					<dim>2</dim>
				</port>
			</output>
		</layer>
		<layer id="100" name="/transform/Transpose" type="Transpose" version="opset1">
			<input>
				<port id="0" precision="I64">
					<dim>3</dim>
					<dim>2</dim>
				</port>
				<port id="1" precision="I64">
					<dim>2</dim>
				</port>
			</input>
			<output>
				<port id="2" precision="I64" names="/transform/Transpose_output_0">
					<dim>2</dim>
					<dim>3</dim>
				</port>
			</output>
		</layer>
		<layer id="101" name="Constant_25703" type="Const" version="opset1">
			<data element_type="i64" shape="1" offset="94" size="8" />
			<output>
				<port id="0" precision="I64">
					<dim>1</dim>
				</port>
			</output>
		</layer>
		<layer id="102" name="/transform/Reshape_1" type="Reshape" version="opset1">
			<data special_zero="true" />
			<input>
				<port id="0" precision="I64">
					<dim>2</dim>
					<dim>3</dim>
				</port>
				<port id="1" precision="I64">
					<dim>1</dim>
				</port>
			</input>
			<output>
				<port id="2" precision="I64" names="/transform/Cast_17_output_0,/transform/Reshape_1_output_0">
					<dim>6</dim>
				</port>
			</output>
		</layer>
		<layer id="103" name="Constant_796" type="Const" version="opset1">
			<data element_type="i64" shape="" offset="14" size="8" />
			<output>
				<port id="0" precision="I64" />
			</output>
		</layer>
		<layer id="104" name="Split_797" type="Split" version="opset1">
			<data num_splits="2" />
			<input>
				<port id="0" precision="I64">
					<dim>6</dim>
				</port>
				<port id="1" precision="I64" />
			</input>
			<output>
				<port id="2" precision="I64">
					<dim>3</dim>
				</port>
				<port id="3" precision="I64">
					<dim>3</dim>
				</port>
			</output>
		</layer>
		<layer id="105" name="Constant_795_compressed" type="Const" version="opset1">
			<data element_type="f16" shape="" offset="0" size="2" />
			<output>
				<port id="0" precision="FP16" />
			</output>
		</layer>
		<layer id="106" name="Constant_795" type="Convert" version="opset1">
			<data destination_type="f32" />
			<rt_info>
				<attribute name="decompression" version="0" />
			</rt_info>
			<input>
				<port id="0" precision="FP16" />
			</input>
			<output>
				<port id="1" precision="FP32" />
			</output>
		</layer>
		<layer id="107" name="/transform/Pad" type="Pad" version="opset1">
			<data pad_mode="constant" />
			<input>
				<port id="0" precision="FP32">
					<dim>3</dim>
					<dim>514</dim>
					<dim>1333</dim>
				</port>
				<port id="1" precision="I64">
					<dim>3</dim>
				</port>
				<port id="2" precision="I64">
					<dim>3</dim>
				</port>
				<port id="3" precision="FP32" />
			</input>
			<output>
				<port id="4" precision="FP32" names="/transform/Pad_output_0">
					<dim>3</dim>
					<dim>544</dim>
					<dim>1344</dim>
				</port>
			</output>
		</layer>
		<layer id="108" name="Constant_1199" type="Const" version="opset1">
			<data element_type="i64" shape="1" offset="14" size="8" />
			<output>
				<port id="0" precision="I64">
					<dim>1</dim>
				</port>
			</output>
		</layer>
		<layer id="109" name="/transform/Unsqueeze_18" type="Unsqueeze" version="opset1">
			<input>
				<port id="0" precision="FP32">
					<dim>3</dim>
					<dim>544</dim>
					<dim>1344</dim>
				</port>
				<port id="1" precision="I64">
					<dim>1</dim>
				</port>
			</input>
			<output>
				<port id="2" precision="FP32" names="/transform/Concat_8_output_0,/transform/Unsqueeze_18_output_0">
					<dim>1</dim>
					<dim>3</dim>
					<dim>544</dim>
					<dim>1344</dim>
				</port>
			</output>
		</layer>
		<layer id="110" name="Multiply_102012_compressed" type="Const" version="opset1">
			<data element_type="f16" shape="64, 3, 7, 7" offset="126" size="18816" />
			<output>
				<port id="0" precision="FP16">
					<dim>64</dim>
					<dim>3</dim>
					<dim>7</dim>
					<dim>7</dim>
				</port>
			</output>
		</layer>
		<layer id="111" name="Multiply_102012" type="Convert" version="opset1">
			<data destination_type="f32" />
			<rt_info>
				<attribute name="decompression" version="0" />
			</rt_info>
			<input>
				<port id="0" precision="FP16">
					<dim>64</dim>
					<dim>3</dim>
					<dim>7</dim>
					<dim>7</dim>
				</port>
			</input>
			<output>
				<port id="1" precision="FP32">
					<dim>64</dim>
					<dim>3</dim>
					<dim>7</dim>
					<dim>7</dim>
				</port>
			</output>
		</layer>
		<layer id="112" name="/backbone/body/bn1/Mul_2" type="Convolution" version="opset1">
			<data strides="2, 2" dilations="1, 1" pads_begin="3, 3" pads_end="3, 3" auto_pad="explicit" />
			<input>
				<port id="0" precision="FP32">
					<dim>1</dim>
					<dim>3</dim>
					<dim>544</dim>
					<dim>1344</dim>
				</port>
				<port id="1" precision="FP32">
					<dim>64</dim>
					<dim>3</dim>
					<dim>7</dim>
					<dim>7</dim>
				</port>
			</input>
			<output>
				<port id="2" precision="FP32" names="/backbone/body/bn1/Mul_2_output_0">
					<dim>1</dim>
					<dim>64</dim>
					<dim>272</dim>
					<dim>672</dim>
				</port>
			</output>
		</layer>
		<layer id="113" name="/backbone/body/bn1/Sub_compressed" type="Const" version="opset1">
			<data element_type="f16" shape="1, 64, 1, 1" offset="18942" size="128" />
			<output>
				<port id="0" precision="FP16">
					<dim>1</dim>
					<dim>64</dim>
					<dim>1</dim>
					<dim>1</dim>
				</port>
			</output>
		</layer>
		<layer id="114" name="/backbone/body/bn1/Sub" type="Convert" version="opset1">
			<data destination_type="f32" />
			<rt_info>
				<attribute name="decompression" version="0" />
			</rt_info>
			<input>
				<port id="0" precision="FP16">
					<dim>1</dim>
					<dim>64</dim>
					<dim>1</dim>
					<dim>1</dim>
				</port>
			</input>
			<output>
				<port id="1" precision="FP32" names="/backbone/body/bn1/Sub_output_0">
					<dim>1</dim>
					<dim>64</dim>
					<dim>1</dim>
					<dim>1</dim>
				</port>
			</output>
		</layer>
		<layer id="115" name="/backbone/body/bn1/Add_1" type="Add" version="opset1">
			<data auto_broadcast="numpy" />
			<input>
				<port id="0" precision="FP32">
					<dim>1</dim>
					<dim>64</dim>
					<dim>272</dim>
					<dim>672</dim>
				</port>
				<port id="1" precision="FP32">
					<dim>1</dim>
					<dim>64</dim>
					<dim>1</dim>
					<dim>1</dim>
				</port>
			</input>
			<output>
				<port id="2" precision="FP32" names="/backbone/body/bn1/Add_1_output_0">
					<dim>1</dim>
					<dim>64</dim>
					<dim>272</dim>
					<dim>672</dim>
				</port>
			</output>
		</layer>
		<layer id="116" name="/backbone/body/relu/Relu" type="ReLU" version="opset1">
			<input>
				<port id="0" precision="FP32">
					<dim>1</dim>
					<dim>64</dim>
					<dim>272</dim>
					<dim>672</dim>
				</port>
			</input>
			<output>
				<port id="1" precision="FP32" names="/backbone/body/relu/Relu_output_0">
					<dim>1</dim>
					<dim>64</dim>
					<dim>272</dim>
					<dim>672</dim>
				</port>
			</output>
		</layer>
		<layer id="117" name="/backbone/body/maxpool/MaxPool" type="MaxPool" version="opset8">
			<data strides="2, 2" dilations="1, 1" pads_begin="1, 1" pads_end="1, 1" kernel="3, 3" rounding_type="floor" auto_pad="explicit" index_element_type="i64" axis="0" />
			<input>
				<port id="0" precision="FP32">
					<dim>1</dim>
					<dim>64</dim>
					<dim>272</dim>
					<dim>672</dim>
				</port>
			</input>
			<output>
				<port id="1" precision="FP32" names="/backbone/body/maxpool/MaxPool_output_0">
					<dim>1</dim>
					<dim>64</dim>
					<dim>136</dim>
					<dim>336</dim>
				</port>
				<port id="2" precision="I64">
					<dim>1</dim>
					<dim>64</dim>
					<dim>136</dim>
					<dim>336</dim>
				</port>
			</output>
		</layer>
		<layer id="118" name="Multiply_102021_compressed" type="Const" version="opset1">
			<data element_type="f16" shape="64, 64, 1, 1" offset="19070" size="8192" />
			<output>
				<port id="0" precision="FP16">
					<dim>64</dim>
					<dim>64</dim>
					<dim>1</dim>
					<dim>1</dim>
				</port>
			</output>
		</layer>
		<layer id="119" name="Multiply_102021" type="Convert" version="opset1">
			<data destination_type="f32" />
			<rt_info>
				<attribute name="decompression" version="0" />
			</rt_info>
			<input>
				<port id="0" precision="FP16">
					<dim>64</dim>
					<dim>64</dim>
					<dim>1</dim>
					<dim>1</dim>
				</port>
			</input>
			<output>
				<port id="1" precision="FP32">
					<dim>64</dim>
					<dim>64</dim>
					<dim>1</dim>
					<dim>1</dim>
				</port>
			</output>
		</layer>
		<layer id="120" name="/backbone/body/layer1/layer1.0/bn1/Mul_2" type="Convolution" version="opset1">
			<data strides="1, 1" dilations="1, 1" pads_begin="0, 0" pads_end="0, 0" auto_pad="explicit" />
			<input>
				<port id="0" precision="FP32">
					<dim>1</dim>
					<dim>64</dim>
					<dim>136</dim>
					<dim>336</dim>
				</port>
				<port id="1" precision="FP32">
					<dim>64</dim>
					<dim>64</dim>
					<dim>1</dim>
					<dim>1</dim>
				</port>
			</input>
			<output>
				<port id="2" precision="FP32" names="/backbone/body/layer1/layer1.0/bn1/Mul_2_output_0">
					<dim>1</dim>
					<dim>64</dim>
					<dim>136</dim>
					<dim>336</dim>
				</port>
			</output>
		</layer>
		<layer id="121" name="/backbone/body/layer1/layer1.0/bn1/Sub_compressed" type="Const" version="opset1">
			<data element_type="f16" shape="1, 64, 1, 1" offset="27262" size="128" />
			<output>
				<port id="0" precision="FP16">
					<dim>1</dim>
					<dim>64</dim>
					<dim>1</dim>
					<dim>1</dim>
				</port>
			</output>
		</layer>
		<layer id="122" name="/backbone/body/layer1/layer1.0/bn1/Sub" type="Convert" version="opset1">
			<data destination_type="f32" />
			<rt_info>
				<attribute name="decompression" version="0" />
			</rt_info>
			<input>
				<port id="0" precision="FP16">
					<dim>1</dim>
					<dim>64</dim>
					<dim>1</dim>
					<dim>1</dim>
				</port>
			</input>
			<output>
				<port id="1" precision="FP32" names="/backbone/body/layer1/layer1.0/bn1/Sub_output_0">
					<dim>1</dim>
					<dim>64</dim>
					<dim>1</dim>
					<dim>1</dim>
				</port>
			</output>
		</layer>
		<layer id="123" name="/backbone/body/layer1/layer1.0/bn1/Add_1" type="Add" version="opset1">
			<data auto_broadcast="numpy" />
			<input>
				<port id="0" precision="FP32">
					<dim>1</dim>
					<dim>64</dim>
					<dim>136</dim>
					<dim>336</dim>
				</port>
				<port id="1" precision="FP32">
					<dim>1</dim>
					<dim>64</dim>
					<dim>1</dim>
					<dim>1</dim>
				</port>
			</input>
			<output>
				<port id="2" precision="FP32" names="/backbone/body/layer1/layer1.0/bn1/Add_1_output_0">
					<dim>1</dim>
					<dim>64</dim>
					<dim>136</dim>
					<dim>336</dim>
				</port>
			</output>
		</layer>
		<layer id="124" name="/backbone/body/layer1/layer1.0/relu/Relu" type="ReLU" version="opset1">
			<input>
				<port id="0" precision="FP32">
					<dim>1</dim>
					<dim>64</dim>
					<dim>136</dim>
					<dim>336</dim>
				</port>
			</input>
			<output>
				<port id="1" precision="FP32" names="/backbone/body/layer1/layer1.0/relu/Relu_output_0">
					<dim>1</dim>
					<dim>64</dim>
					<dim>136</dim>
					<dim>336</dim>
				</port>
			</output>
		</layer>
		<layer id="125" name="Multiply_102030_compressed" type="Const" version="opset1">
			<data element_type="f16" shape="64, 64, 3, 3" offset="27390" size="73728" />
			<output>
				<port id="0" precision="FP16">
					<dim>64</dim>
					<dim>64</dim>
					<dim>3</dim>
					<dim>3</dim>
				</port>
			</output>
		</layer>
		<layer id="126" name="Multiply_102030" type="Convert" version="opset1">
			<data destination_type="f32" />
			<rt_info>
				<attribute name="decompression" version="0" />
			</rt_info>
			<input>
				<port id="0" precision="FP16">
					<dim>64</dim>
					<dim>64</dim>
					<dim>3</dim>
					<dim>3</dim>
				</port>
			</input>
			<output>
				<port id="1" precision="FP32">
					<dim>64</dim>
					<dim>64</dim>
					<dim>3</dim>
					<dim>3</dim>
				</port>
			</output>
		</layer>
		<layer id="127" name="/backbone/body/layer1/layer1.0/bn2/Mul_2" type="Convolution" version="opset1">
			<data strides="1, 1" dilations="1, 1" pads_begin="1, 1" pads_end="1, 1" auto_pad="explicit" />
			<input>
				<port id="0" precision="FP32">
					<dim>1</dim>
					<dim>64</dim>
					<dim>136</dim>
					<dim>336</dim>
				</port>
				<port id="1" precision="FP32">
					<dim>64</dim>
					<dim>64</dim>
					<dim>3</dim>
					<dim>3</dim>
				</port>
			</input>
			<output>
				<port id="2" precision="FP32" names="/backbone/body/layer1/layer1.0/bn2/Mul_2_output_0">
					<dim>1</dim>
					<dim>64</dim>
					<dim>136</dim>
					<dim>336</dim>
				</port>
			</output>
		</layer>
		<layer id="128" name="/backbone/body/layer1/layer1.0/bn2/Sub_compressed" type="Const" version="opset1">
			<data element_type="f16" shape="1, 64, 1, 1" offset="101118" size="128" />
			<output>
				<port id="0" precision="FP16">
					<dim>1</dim>
					<dim>64</dim>
					<dim>1</dim>
					<dim>1</dim>
				</port>
			</output>
		</layer>
		<layer id="129" name="/backbone/body/layer1/layer1.0/bn2/Sub" type="Convert" version="opset1">
			<data destination_type="f32" />
			<rt_info>
				<attribute name="decompression" version="0" />
			</rt_info>
			<input>
				<port id="0" precision="FP16">
					<dim>1</dim>
					<dim>64</dim>
					<dim>1</dim>
					<dim>1</dim>
				</port>
			</input>
			<output>
				<port id="1" precision="FP32" names="/backbone/body/layer1/layer1.0/bn2/Sub_output_0">
					<dim>1</dim>
					<dim>64</dim>
					<dim>1</dim>
					<dim>1</dim>
				</port>
			</output>
		</layer>
		<layer id="130" name="/backbone/body/layer1/layer1.0/bn2/Add_1" type="Add" version="opset1">
			<data auto_broadcast="numpy" />
			<input>
				<port id="0" precision="FP32">
					<dim>1</dim>
					<dim>64</dim>
					<dim>136</dim>
					<dim>336</dim>
				</port>
				<port id="1" precision="FP32">
					<dim>1</dim>
					<dim>64</dim>
					<dim>1</dim>
					<dim>1</dim>
				</port>
			</input>
			<output>
				<port id="2" precision="FP32" names="/backbone/body/layer1/layer1.0/bn2/Add_1_output_0">
					<dim>1</dim>
					<dim>64</dim>
					<dim>136</dim>
					<dim>336</dim>
				</port>
			</output>
		</layer>
		<layer id="131" name="/backbone/body/layer1/layer1.0/relu_1/Relu" type="ReLU" version="opset1">
			<input>
				<port id="0" precision="FP32">
					<dim>1</dim>
					<dim>64</dim>
					<dim>136</dim>
					<dim>336</dim>
				</port>
			</input>
			<output>
				<port id="1" precision="FP32" names="/backbone/body/layer1/layer1.0/relu_1/Relu_output_0">
					<dim>1</dim>
					<dim>64</dim>
					<dim>136</dim>
					<dim>336</dim>
				</port>
			</output>
		</layer>
		<layer id="132" name="Multiply_102039_compressed" type="Const" version="opset1">
			<data element_type="f16" shape="256, 64, 1, 1" offset="101246" size="32768" />
			<output>
				<port id="0" precision="FP16">
					<dim>256</dim>
					<dim>64</dim>
					<dim>1</dim>
					<dim>1</dim>
				</port>
			</output>
		</layer>
		<layer id="133" name="Multiply_102039" type="Convert" version="opset1">
			<data destination_type="f32" />
			<rt_info>
				<attribute name="decompression" version="0" />
			</rt_info>
			<input>
				<port id="0" precision="FP16">
					<dim>256</dim>
					<dim>64</dim>
					<dim>1</dim>
					<dim>1</dim>
				</port>
			</input>
			<output>
				<port id="1" precision="FP32">
					<dim>256</dim>
					<dim>64</dim>
					<dim>1</dim>
					<dim>1</dim>
				</port>
			</output>
		</layer>
		<layer id="134" name="/backbone/body/layer1/layer1.0/bn3/Mul_2" type="Convolution" version="opset1">
			<data strides="1, 1" dilations="1, 1" pads_begin="0, 0" pads_end="0, 0" auto_pad="explicit" />
			<input>
				<port id="0" precision="FP32">
					<dim>1</dim>
					<dim>64</dim>
					<dim>136</dim>
					<dim>336</dim>
				</port>
				<port id="1" precision="FP32">
					<dim>256</dim>
					<dim>64</dim>
					<dim>1</dim>
					<dim>1</dim>
				</port>
			</input>
			<output>
				<port id="2" precision="FP32" names="/backbone/body/layer1/layer1.0/bn3/Mul_2_output_0">
					<dim>1</dim>
					<dim>256</dim>
					<dim>136</dim>
					<dim>336</dim>
				</port>
			</output>
		</layer>
		<layer id="135" name="/backbone/body/layer1/layer1.0/bn3/Sub_compressed" type="Const" version="opset1">
			<data element_type="f16" shape="1, 256, 1, 1" offset="134014" size="512" />
			<output>
				<port id="0" precision="FP16">
					<dim>1</dim>
					<dim>256</dim>
					<dim>1</dim>
					<dim>1</dim>
				</port>
			</output>
		</layer>
		<layer id="136" name="/backbone/body/layer1/layer1.0/bn3/Sub" type="Convert" version="opset1">
			<data destination_type="f32" />
			<rt_info>
				<attribute name="decompression" version="0" />
			</rt_info>
			<input>
				<port id="0" precision="FP16">
					<dim>1</dim>
					<dim>256</dim>
					<dim>1</dim>
					<dim>1</dim>
				</port>
			</input>
			<output>
				<port id="1" precision="FP32" names="/backbone/body/layer1/layer1.0/bn3/Sub_output_0">
					<dim>1</dim>
					<dim>256</dim>
					<dim>1</dim>
					<dim>1</dim>
				</port>
			</output>
		</layer>
		<layer id="137" name="/backbone/body/layer1/layer1.0/bn3/Add_1" type="Add" version="opset1">
			<data auto_broadcast="numpy" />
			<input>
				<port id="0" precision="FP32">
					<dim>1</dim>
					<dim>256</dim>
					<dim>136</dim>
					<dim>336</dim>
				</port>
				<port id="1" precision="FP32">
					<dim>1</dim>
					<dim>256</dim>
					<dim>1</dim>
					<dim>1</dim>
				</port>
			</input>
			<output>
				<port id="2" precision="FP32" names="/backbone/body/layer1/layer1.0/bn3/Add_1_output_0">
					<dim>1</dim>
					<dim>256</dim>
					<dim>136</dim>
					<dim>336</dim>
				</port>
			</output>
		</layer>
		<layer id="138" name="Multiply_102048_compressed" type="Const" version="opset1">
			<data element_type="f16" shape="256, 64, 1, 1" offset="134526" size="32768" />
			<output>
				<port id="0" precision="FP16">
					<dim>256</dim>
					<dim>64</dim>
					<dim>1</dim>
					<dim>1</dim>
				</port>
			</output>
		</layer>
		<layer id="139" name="Multiply_102048" type="Convert" version="opset1">
			<data destination_type="f32" />
			<rt_info>
				<attribute name="decompression" version="0" />
			</rt_info>
			<input>
				<port id="0" precision="FP16">
					<dim>256</dim>
					<dim>64</dim>
					<dim>1</dim>
					<dim>1</dim>
				</port>
			</input>
			<output>
				<port id="1" precision="FP32">
					<dim>256</dim>
					<dim>64</dim>
					<dim>1</dim>
					<dim>1</dim>
				</port>
			</output>
		</layer>
		<layer id="140" name="/backbone/body/layer1/layer1.0/downsample/downsample.1/Mul_2" type="Convolution" version="opset1">
			<data strides="1, 1" dilations="1, 1" pads_begin="0, 0" pads_end="0, 0" auto_pad="explicit" />
			<input>
				<port id="0" precision="FP32">
					<dim>1</dim>
					<dim>64</dim>
					<dim>136</dim>
					<dim>336</dim>
				</port>
				<port id="1" precision="FP32">
					<dim>256</dim>
					<dim>64</dim>
					<dim>1</dim>
					<dim>1</dim>
				</port>
			</input>
			<output>
				<port id="2" precision="FP32" names="/backbone/body/layer1/layer1.0/downsample/downsample.1/Mul_2_output_0">
					<dim>1</dim>
					<dim>256</dim>
					<dim>136</dim>
					<dim>336</dim>
				</port>
			</output>
		</layer>
		<layer id="141" name="/backbone/body/layer1/layer1.0/downsample/downsample.1/Sub_compressed" type="Const" version="opset1">
			<data element_type="f16" shape="1, 256, 1, 1" offset="167294" size="512" />
			<output>
				<port id="0" precision="FP16">
					<dim>1</dim>
					<dim>256</dim>
					<dim>1</dim>
					<dim>1</dim>
				</port>
			</output>
		</layer>
		<layer id="142" name="/backbone/body/layer1/layer1.0/downsample/downsample.1/Sub" type="Convert" version="opset1">
			<data destination_type="f32" />
			<rt_info>
				<attribute name="decompression" version="0" />
			</rt_info>
			<input>
				<port id="0" precision="FP16">
					<dim>1</dim>
					<dim>256</dim>
					<dim>1</dim>
					<dim>1</dim>
				</port>
			</input>
			<output>
				<port id="1" precision="FP32" names="/backbone/body/layer1/layer1.0/downsample/downsample.1/Sub_output_0">
					<dim>1</dim>
					<dim>256</dim>
					<dim>1</dim>
					<dim>1</dim>
				</port>
			</output>
		</layer>
		<layer id="143" name="/backbone/body/layer1/layer1.0/downsample/downsample.1/Add_1" type="Add" version="opset1">
			<data auto_broadcast="numpy" />
			<input>
				<port id="0" precision="FP32">
					<dim>1</dim>
					<dim>256</dim>
					<dim>136</dim>
					<dim>336</dim>
				</port>
				<port id="1" precision="FP32">
					<dim>1</dim>
					<dim>256</dim>
					<dim>1</dim>
					<dim>1</dim>
				</port>
			</input>
			<output>
				<port id="2" precision="FP32" names="/backbone/body/layer1/layer1.0/downsample/downsample.1/Add_1_output_0">
					<dim>1</dim>
					<dim>256</dim>
					<dim>136</dim>
					<dim>336</dim>
				</port>
			</output>
		</layer>
		<layer id="144" name="/backbone/body/layer1/layer1.0/Add" type="Add" version="opset1">
			<data auto_broadcast="numpy" />
			<input>
				<port id="0" precision="FP32">
					<dim>1</dim>
					<dim>256</dim>
					<dim>136</dim>
					<dim>336</dim>
				</port>
				<port id="1" precision="FP32">
					<dim>1</dim>
					<dim>256</dim>
					<dim>136</dim>
					<dim>336</dim>
				</port>
			</input>
			<output>
				<port id="2" precision="FP32" names="/backbone/body/layer1/layer1.0/Add_output_0">
					<dim>1</dim>
					<dim>256</dim>
					<dim>136</dim>
					<dim>336</dim>
				</port>
			</output>
		</layer>
		<layer id="145" name="/backbone/body/layer1/layer1.0/relu_2/Relu" type="ReLU" version="opset1">
			<input>
				<port id="0" precision="FP32">
					<dim>1</dim>
					<dim>256</dim>
					<dim>136</dim>
					<dim>336</dim>
				</port>
			</input>
			<output>
				<port id="1" precision="FP32" names="/backbone/body/layer1/layer1.0/relu_2/Relu_output_0">
					<dim>1</dim>
					<dim>256</dim>
					<dim>136</dim>
					<dim>336</dim>
				</port>
			</output>
		</layer>
		<layer id="146" name="Multiply_102057_compressed" type="Const" version="opset1">
			<data element_type="f16" shape="64, 256, 1, 1" offset="167806" size="32768" />
			<output>
				<port id="0" precision="FP16">
					<dim>64</dim>
					<dim>256</dim>
					<dim>1</dim>
					<dim>1</dim>
				</port>
			</output>
		</layer>
		<layer id="147" name="Multiply_102057" type="Convert" version="opset1">
			<data destination_type="f32" />
			<rt_info>
				<attribute name="decompression" version="0" />
			</rt_info>
			<input>
				<port id="0" precision="FP16">
					<dim>64</dim>
					<dim>256</dim>
					<dim>1</dim>
					<dim>1</dim>
				</port>
			</input>
			<output>
				<port id="1" precision="FP32">
					<dim>64</dim>
					<dim>256</dim>
					<dim>1</dim>
					<dim>1</dim>
				</port>
			</output>
		</layer>
		<layer id="148" name="/backbone/body/layer1/layer1.1/bn1/Mul_2" type="Convolution" version="opset1">
			<data strides="1, 1" dilations="1, 1" pads_begin="0, 0" pads_end="0, 0" auto_pad="explicit" />
			<input>
				<port id="0" precision="FP32">
					<dim>1</dim>
					<dim>256</dim>
					<dim>136</dim>
					<dim>336</dim>
				</port>
				<port id="1" precision="FP32">
					<dim>64</dim>
					<dim>256</dim>
					<dim>1</dim>
					<dim>1</dim>
				</port>
			</input>
			<output>
				<port id="2" precision="FP32" names="/backbone/body/layer1/layer1.1/bn1/Mul_2_output_0">
					<dim>1</dim>
					<dim>64</dim>
					<dim>136</dim>
					<dim>336</dim>
				</port>
			</output>
		</layer>
		<layer id="149" name="/backbone/body/layer1/layer1.1/bn1/Sub_compressed" type="Const" version="opset1">
			<data element_type="f16" shape="1, 64, 1, 1" offset="200574" size="128" />
			<output>
				<port id="0" precision="FP16">
					<dim>1</dim>
					<dim>64</dim>
					<dim>1</dim>
					<dim>1</dim>
				</port>
			</output>
		</layer>
		<layer id="150" name="/backbone/body/layer1/layer1.1/bn1/Sub" type="Convert" version="opset1">
			<data destination_type="f32" />
			<rt_info>
				<attribute name="decompression" version="0" />
			</rt_info>
			<input>
				<port id="0" precision="FP16">
					<dim>1</dim>
					<dim>64</dim>
					<dim>1</dim>
					<dim>1</dim>
				</port>
			</input>
			<output>
				<port id="1" precision="FP32" names="/backbone/body/layer1/layer1.1/bn1/Sub_output_0">
					<dim>1</dim>
					<dim>64</dim>
					<dim>1</dim>
					<dim>1</dim>
				</port>
			</output>
		</layer>
		<layer id="151" name="/backbone/body/layer1/layer1.1/bn1/Add_1" type="Add" version="opset1">
			<data auto_broadcast="numpy" />
			<input>
				<port id="0" precision="FP32">
					<dim>1</dim>
					<dim>64</dim>
					<dim>136</dim>
					<dim>336</dim>
				</port>
				<port id="1" precision="FP32">
					<dim>1</dim>
					<dim>64</dim>
					<dim>1</dim>
					<dim>1</dim>
				</port>
			</input>
			<output>
				<port id="2" precision="FP32" names="/backbone/body/layer1/layer1.1/bn1/Add_1_output_0">
					<dim>1</dim>
					<dim>64</dim>
					<dim>136</dim>
					<dim>336</dim>
				</port>
			</output>
		</layer>
		<layer id="152" name="/backbone/body/layer1/layer1.1/relu/Relu" type="ReLU" version="opset1">
			<input>
				<port id="0" precision="FP32">
					<dim>1</dim>
					<dim>64</dim>
					<dim>136</dim>
					<dim>336</dim>
				</port>
			</input>
			<output>
				<port id="1" precision="FP32" names="/backbone/body/layer1/layer1.1/relu/Relu_output_0">
					<dim>1</dim>
					<dim>64</dim>
					<dim>136</dim>
					<dim>336</dim>
				</port>
			</output>
		</layer>
		<layer id="153" name="Multiply_102066_compressed" type="Const" version="opset1">
			<data element_type="f16" shape="64, 64, 3, 3" offset="200702" size="73728" />
			<output>
				<port id="0" precision="FP16">
					<dim>64</dim>
					<dim>64</dim>
					<dim>3</dim>
					<dim>3</dim>
				</port>
			</output>
		</layer>
		<layer id="154" name="Multiply_102066" type="Convert" version="opset1">
			<data destination_type="f32" />
			<rt_info>
				<attribute name="decompression" version="0" />
			</rt_info>
			<input>
				<port id="0" precision="FP16">
					<dim>64</dim>
					<dim>64</dim>
					<dim>3</dim>
					<dim>3</dim>
				</port>
			</input>
			<output>
				<port id="1" precision="FP32">
					<dim>64</dim>
					<dim>64</dim>
					<dim>3</dim>
					<dim>3</dim>
				</port>
			</output>
		</layer>
		<layer id="155" name="/backbone/body/layer1/layer1.1/bn2/Mul_2" type="Convolution" version="opset1">
			<data strides="1, 1" dilations="1, 1" pads_begin="1, 1" pads_end="1, 1" auto_pad="explicit" />
			<input>
				<port id="0" precision="FP32">
					<dim>1</dim>
					<dim>64</dim>
					<dim>136</dim>
					<dim>336</dim>
				</port>
				<port id="1" precision="FP32">
					<dim>64</dim>
					<dim>64</dim>
					<dim>3</dim>
					<dim>3</dim>
				</port>
			</input>
			<output>
				<port id="2" precision="FP32" names="/backbone/body/layer1/layer1.1/bn2/Mul_2_output_0">
					<dim>1</dim>
					<dim>64</dim>
					<dim>136</dim>
					<dim>336</dim>
				</port>
			</output>
		</layer>
		<layer id="156" name="/backbone/body/layer1/layer1.1/bn2/Sub_compressed" type="Const" version="opset1">
			<data element_type="f16" shape="1, 64, 1, 1" offset="274430" size="128" />
			<output>
				<port id="0" precision="FP16">
					<dim>1</dim>
					<dim>64</dim>
					<dim>1</dim>
					<dim>1</dim>
				</port>
			</output>
		</layer>
		<layer id="157" name="/backbone/body/layer1/layer1.1/bn2/Sub" type="Convert" version="opset1">
			<data destination_type="f32" />
			<rt_info>
				<attribute name="decompression" version="0" />
			</rt_info>
			<input>
				<port id="0" precision="FP16">
					<dim>1</dim>
					<dim>64</dim>
					<dim>1</dim>
					<dim>1</dim>
				</port>
			</input>
			<output>
				<port id="1" precision="FP32" names="/backbone/body/layer1/layer1.1/bn2/Sub_output_0">
					<dim>1</dim>
					<dim>64</dim>
					<dim>1</dim>
					<dim>1</dim>
				</port>
			</output>
		</layer>
		<layer id="158" name="/backbone/body/layer1/layer1.1/bn2/Add_1" type="Add" version="opset1">
			<data auto_broadcast="numpy" />
			<input>
				<port id="0" precision="FP32">
					<dim>1</dim>
					<dim>64</dim>
					<dim>136</dim>
					<dim>336</dim>
				</port>
				<port id="1" precision="FP32">
					<dim>1</dim>
					<dim>64</dim>
					<dim>1</dim>
					<dim>1</dim>
				</port>
			</input>
			<output>
				<port id="2" precision="FP32" names="/backbone/body/layer1/layer1.1/bn2/Add_1_output_0">
					<dim>1</dim>
					<dim>64</dim>
					<dim>136</dim>
					<dim>336</dim>
				</port>
			</output>
		</layer>
		<layer id="159" name="/backbone/body/layer1/layer1.1/relu_1/Relu" type="ReLU" version="opset1">
			<input>
				<port id="0" precision="FP32">
					<dim>1</dim>
					<dim>64</dim>
					<dim>136</dim>
					<dim>336</dim>
				</port>
			</input>
			<output>
				<port id="1" precision="FP32" names="/backbone/body/layer1/layer1.1/relu_1/Relu_output_0">
					<dim>1</dim>
					<dim>64</dim>
					<dim>136</dim>
					<dim>336</dim>
				</port>
			</output>
		</layer>
		<layer id="160" name="Multiply_102075_compressed" type="Const" version="opset1">
			<data element_type="f16" shape="256, 64, 1, 1" offset="274558" size="32768" />
			<output>
				<port id="0" precision="FP16">
					<dim>256</dim>
					<dim>64</dim>
					<dim>1</dim>
					<dim>1</dim>
				</port>
			</output>
		</layer>
		<layer id="161" name="Multiply_102075" type="Convert" version="opset1">
			<data destination_type="f32" />
			<rt_info>
				<attribute name="decompression" version="0" />
			</rt_info>
			<input>
				<port id="0" precision="FP16">
					<dim>256</dim>
					<dim>64</dim>
					<dim>1</dim>
					<dim>1</dim>
				</port>
			</input>
			<output>
				<port id="1" precision="FP32">
					<dim>256</dim>
					<dim>64</dim>
					<dim>1</dim>
					<dim>1</dim>
				</port>
			</output>
		</layer>
		<layer id="162" name="/backbone/body/layer1/layer1.1/bn3/Mul_2" type="Convolution" version="opset1">
			<data strides="1, 1" dilations="1, 1" pads_begin="0, 0" pads_end="0, 0" auto_pad="explicit" />
			<input>
				<port id="0" precision="FP32">
					<dim>1</dim>
					<dim>64</dim>
					<dim>136</dim>
					<dim>336</dim>
				</port>
				<port id="1" precision="FP32">
					<dim>256</dim>
					<dim>64</dim>
					<dim>1</dim>
					<dim>1</dim>
				</port>
			</input>
			<output>
				<port id="2" precision="FP32" names="/backbone/body/layer1/layer1.1/bn3/Mul_2_output_0">
					<dim>1</dim>
					<dim>256</dim>
					<dim>136</dim>
					<dim>336</dim>
				</port>
			</output>
		</layer>
		<layer id="163" name="/backbone/body/layer1/layer1.1/bn3/Sub_compressed" type="Const" version="opset1">
			<data element_type="f16" shape="1, 256, 1, 1" offset="307326" size="512" />
			<output>
				<port id="0" precision="FP16">
					<dim>1</dim>
					<dim>256</dim>
					<dim>1</dim>
					<dim>1</dim>
				</port>
			</output>
		</layer>
		<layer id="164" name="/backbone/body/layer1/layer1.1/bn3/Sub" type="Convert" version="opset1">
			<data destination_type="f32" />
			<rt_info>
				<attribute name="decompression" version="0" />
			</rt_info>
			<input>
				<port id="0" precision="FP16">
					<dim>1</dim>
					<dim>256</dim>
					<dim>1</dim>
					<dim>1</dim>
				</port>
			</input>
			<output>
				<port id="1" precision="FP32" names="/backbone/body/layer1/layer1.1/bn3/Sub_output_0">
					<dim>1</dim>
					<dim>256</dim>
					<dim>1</dim>
					<dim>1</dim>
				</port>
			</output>
		</layer>
		<layer id="165" name="/backbone/body/layer1/layer1.1/bn3/Add_1" type="Add" version="opset1">
			<data auto_broadcast="numpy" />
			<input>
				<port id="0" precision="FP32">
					<dim>1</dim>
					<dim>256</dim>
					<dim>136</dim>
					<dim>336</dim>
				</port>
				<port id="1" precision="FP32">
					<dim>1</dim>
					<dim>256</dim>
					<dim>1</dim>
					<dim>1</dim>
				</port>
			</input>
			<output>
				<port id="2" precision="FP32" names="/backbone/body/layer1/layer1.1/bn3/Add_1_output_0">
					<dim>1</dim>
					<dim>256</dim>
					<dim>136</dim>
					<dim>336</dim>
				</port>
			</output>
		</layer>
		<layer id="166" name="/backbone/body/layer1/layer1.1/Add" type="Add" version="opset1">
			<data auto_broadcast="numpy" />
			<input>
				<port id="0" precision="FP32">
					<dim>1</dim>
					<dim>256</dim>
					<dim>136</dim>
					<dim>336</dim>
				</port>
				<port id="1" precision="FP32">
					<dim>1</dim>
					<dim>256</dim>
					<dim>136</dim>
					<dim>336</dim>
				</port>
			</input>
			<output>
				<port id="2" precision="FP32" names="/backbone/body/layer1/layer1.1/Add_output_0">
					<dim>1</dim>
					<dim>256</dim>
					<dim>136</dim>
					<dim>336</dim>
				</port>
			</output>
		</layer>
		<layer id="167" name="/backbone/body/layer1/layer1.1/relu_2/Relu" type="ReLU" version="opset1">
			<input>
				<port id="0" precision="FP32">
					<dim>1</dim>
					<dim>256</dim>
					<dim>136</dim>
					<dim>336</dim>
				</port>
			</input>
			<output>
				<port id="1" precision="FP32" names="/backbone/body/layer1/layer1.1/relu_2/Relu_output_0">
					<dim>1</dim>
					<dim>256</dim>
					<dim>136</dim>
					<dim>336</dim>
				</port>
			</output>
		</layer>
		<layer id="168" name="Multiply_102084_compressed" type="Const" version="opset1">
			<data element_type="f16" shape="64, 256, 1, 1" offset="307838" size="32768" />
			<output>
				<port id="0" precision="FP16">
					<dim>64</dim>
					<dim>256</dim>
					<dim>1</dim>
					<dim>1</dim>
				</port>
			</output>
		</layer>
		<layer id="169" name="Multiply_102084" type="Convert" version="opset1">
			<data destination_type="f32" />
			<rt_info>
				<attribute name="decompression" version="0" />
			</rt_info>
			<input>
				<port id="0" precision="FP16">
					<dim>64</dim>
					<dim>256</dim>
					<dim>1</dim>
					<dim>1</dim>
				</port>
			</input>
			<output>
				<port id="1" precision="FP32">
					<dim>64</dim>
					<dim>256</dim>
					<dim>1</dim>
					<dim>1</dim>
				</port>
			</output>
		</layer>
		<layer id="170" name="/backbone/body/layer1/layer1.2/bn1/Mul_2" type="Convolution" version="opset1">
			<data strides="1, 1" dilations="1, 1" pads_begin="0, 0" pads_end="0, 0" auto_pad="explicit" />
			<input>
				<port id="0" precision="FP32">
					<dim>1</dim>
					<dim>256</dim>
					<dim>136</dim>
					<dim>336</dim>
				</port>
				<port id="1" precision="FP32">
					<dim>64</dim>
					<dim>256</dim>
					<dim>1</dim>
					<dim>1</dim>
				</port>
			</input>
			<output>
				<port id="2" precision="FP32" names="/backbone/body/layer1/layer1.2/bn1/Mul_2_output_0">
					<dim>1</dim>
					<dim>64</dim>
					<dim>136</dim>
					<dim>336</dim>
				</port>
			</output>
		</layer>
		<layer id="171" name="/backbone/body/layer1/layer1.2/bn1/Sub_compressed" type="Const" version="opset1">
			<data element_type="f16" shape="1, 64, 1, 1" offset="340606" size="128" />
			<output>
				<port id="0" precision="FP16">
					<dim>1</dim>
					<dim>64</dim>
					<dim>1</dim>
					<dim>1</dim>
				</port>
			</output>
		</layer>
		<layer id="172" name="/backbone/body/layer1/layer1.2/bn1/Sub" type="Convert" version="opset1">
			<data destination_type="f32" />
			<rt_info>
				<attribute name="decompression" version="0" />
			</rt_info>
			<input>
				<port id="0" precision="FP16">
					<dim>1</dim>
					<dim>64</dim>
					<dim>1</dim>
					<dim>1</dim>
				</port>
			</input>
			<output>
				<port id="1" precision="FP32" names="/backbone/body/layer1/layer1.2/bn1/Sub_output_0">
					<dim>1</dim>
					<dim>64</dim>
					<dim>1</dim>
					<dim>1</dim>
				</port>
			</output>
		</layer>
		<layer id="173" name="/backbone/body/layer1/layer1.2/bn1/Add_1" type="Add" version="opset1">
			<data auto_broadcast="numpy" />
			<input>
				<port id="0" precision="FP32">
					<dim>1</dim>
					<dim>64</dim>
					<dim>136</dim>
					<dim>336</dim>
				</port>
				<port id="1" precision="FP32">
					<dim>1</dim>
					<dim>64</dim>
					<dim>1</dim>
					<dim>1</dim>
				</port>
			</input>
			<output>
				<port id="2" precision="FP32" names="/backbone/body/layer1/layer1.2/bn1/Add_1_output_0">
					<dim>1</dim>
					<dim>64</dim>
					<dim>136</dim>
					<dim>336</dim>
				</port>
			</output>
		</layer>
		<layer id="174" name="/backbone/body/layer1/layer1.2/relu/Relu" type="ReLU" version="opset1">
			<input>
				<port id="0" precision="FP32">
					<dim>1</dim>
					<dim>64</dim>
					<dim>136</dim>
					<dim>336</dim>
				</port>
			</input>
			<output>
				<port id="1" precision="FP32" names="/backbone/body/layer1/layer1.2/relu/Relu_output_0">
					<dim>1</dim>
					<dim>64</dim>
					<dim>136</dim>
					<dim>336</dim>
				</port>
			</output>
		</layer>
		<layer id="175" name="Multiply_102093_compressed" type="Const" version="opset1">
			<data element_type="f16" shape="64, 64, 3, 3" offset="340734" size="73728" />
			<output>
				<port id="0" precision="FP16">
					<dim>64</dim>
					<dim>64</dim>
					<dim>3</dim>
					<dim>3</dim>
				</port>
			</output>
		</layer>
		<layer id="176" name="Multiply_102093" type="Convert" version="opset1">
			<data destination_type="f32" />
			<rt_info>
				<attribute name="decompression" version="0" />
			</rt_info>
			<input>
				<port id="0" precision="FP16">
					<dim>64</dim>
					<dim>64</dim>
					<dim>3</dim>
					<dim>3</dim>
				</port>
			</input>
			<output>
				<port id="1" precision="FP32">
					<dim>64</dim>
					<dim>64</dim>
					<dim>3</dim>
					<dim>3</dim>
				</port>
			</output>
		</layer>
		<layer id="177" name="/backbone/body/layer1/layer1.2/bn2/Mul_2" type="Convolution" version="opset1">
			<data strides="1, 1" dilations="1, 1" pads_begin="1, 1" pads_end="1, 1" auto_pad="explicit" />
			<input>
				<port id="0" precision="FP32">
					<dim>1</dim>
					<dim>64</dim>
					<dim>136</dim>
					<dim>336</dim>
				</port>
				<port id="1" precision="FP32">
					<dim>64</dim>
					<dim>64</dim>
					<dim>3</dim>
					<dim>3</dim>
				</port>
			</input>
			<output>
				<port id="2" precision="FP32" names="/backbone/body/layer1/layer1.2/bn2/Mul_2_output_0">
					<dim>1</dim>
					<dim>64</dim>
					<dim>136</dim>
					<dim>336</dim>
				</port>
			</output>
		</layer>
		<layer id="178" name="/backbone/body/layer1/layer1.2/bn2/Sub_compressed" type="Const" version="opset1">
			<data element_type="f16" shape="1, 64, 1, 1" offset="414462" size="128" />
			<output>
				<port id="0" precision="FP16">
					<dim>1</dim>
					<dim>64</dim>
					<dim>1</dim>
					<dim>1</dim>
				</port>
			</output>
		</layer>
		<layer id="179" name="/backbone/body/layer1/layer1.2/bn2/Sub" type="Convert" version="opset1">
			<data destination_type="f32" />
			<rt_info>
				<attribute name="decompression" version="0" />
			</rt_info>
			<input>
				<port id="0" precision="FP16">
					<dim>1</dim>
					<dim>64</dim>
					<dim>1</dim>
					<dim>1</dim>
				</port>
			</input>
			<output>
				<port id="1" precision="FP32" names="/backbone/body/layer1/layer1.2/bn2/Sub_output_0">
					<dim>1</dim>
					<dim>64</dim>
					<dim>1</dim>
					<dim>1</dim>
				</port>
			</output>
		</layer>
		<layer id="180" name="/backbone/body/layer1/layer1.2/bn2/Add_1" type="Add" version="opset1">
			<data auto_broadcast="numpy" />
			<input>
				<port id="0" precision="FP32">
					<dim>1</dim>
					<dim>64</dim>
					<dim>136</dim>
					<dim>336</dim>
				</port>
				<port id="1" precision="FP32">
					<dim>1</dim>
					<dim>64</dim>
					<dim>1</dim>
					<dim>1</dim>
				</port>
			</input>
			<output>
				<port id="2" precision="FP32" names="/backbone/body/layer1/layer1.2/bn2/Add_1_output_0">
					<dim>1</dim>
					<dim>64</dim>
					<dim>136</dim>
					<dim>336</dim>
				</port>
			</output>
		</layer>
		<layer id="181" name="/backbone/body/layer1/layer1.2/relu_1/Relu" type="ReLU" version="opset1">
			<input>
				<port id="0" precision="FP32">
					<dim>1</dim>
					<dim>64</dim>
					<dim>136</dim>
					<dim>336</dim>
				</port>
			</input>
			<output>
				<port id="1" precision="FP32" names="/backbone/body/layer1/layer1.2/relu_1/Relu_output_0">
					<dim>1</dim>
					<dim>64</dim>
					<dim>136</dim>
					<dim>336</dim>
				</port>
			</output>
		</layer>
		<layer id="182" name="Multiply_102102_compressed" type="Const" version="opset1">
			<data element_type="f16" shape="256, 64, 1, 1" offset="414590" size="32768" />
			<output>
				<port id="0" precision="FP16">
					<dim>256</dim>
					<dim>64</dim>
					<dim>1</dim>
					<dim>1</dim>
				</port>
			</output>
		</layer>
		<layer id="183" name="Multiply_102102" type="Convert" version="opset1">
			<data destination_type="f32" />
			<rt_info>
				<attribute name="decompression" version="0" />
			</rt_info>
			<input>
				<port id="0" precision="FP16">
					<dim>256</dim>
					<dim>64</dim>
					<dim>1</dim>
					<dim>1</dim>
				</port>
			</input>
			<output>
				<port id="1" precision="FP32">
					<dim>256</dim>
					<dim>64</dim>
					<dim>1</dim>
					<dim>1</dim>
				</port>
			</output>
		</layer>
		<layer id="184" name="/backbone/body/layer1/layer1.2/bn3/Mul_2" type="Convolution" version="opset1">
			<data strides="1, 1" dilations="1, 1" pads_begin="0, 0" pads_end="0, 0" auto_pad="explicit" />
			<input>
				<port id="0" precision="FP32">
					<dim>1</dim>
					<dim>64</dim>
					<dim>136</dim>
					<dim>336</dim>
				</port>
				<port id="1" precision="FP32">
					<dim>256</dim>
					<dim>64</dim>
					<dim>1</dim>
					<dim>1</dim>
				</port>
			</input>
			<output>
				<port id="2" precision="FP32" names="/backbone/body/layer1/layer1.2/bn3/Mul_2_output_0">
					<dim>1</dim>
					<dim>256</dim>
					<dim>136</dim>
					<dim>336</dim>
				</port>
			</output>
		</layer>
		<layer id="185" name="/backbone/body/layer1/layer1.2/bn3/Sub_compressed" type="Const" version="opset1">
			<data element_type="f16" shape="1, 256, 1, 1" offset="447358" size="512" />
			<output>
				<port id="0" precision="FP16">
					<dim>1</dim>
					<dim>256</dim>
					<dim>1</dim>
					<dim>1</dim>
				</port>
			</output>
		</layer>
		<layer id="186" name="/backbone/body/layer1/layer1.2/bn3/Sub" type="Convert" version="opset1">
			<data destination_type="f32" />
			<rt_info>
				<attribute name="decompression" version="0" />
			</rt_info>
			<input>
				<port id="0" precision="FP16">
					<dim>1</dim>
					<dim>256</dim>
					<dim>1</dim>
					<dim>1</dim>
				</port>
			</input>
			<output>
				<port id="1" precision="FP32" names="/backbone/body/layer1/layer1.2/bn3/Sub_output_0">
					<dim>1</dim>
					<dim>256</dim>
					<dim>1</dim>
					<dim>1</dim>
				</port>
			</output>
		</layer>
		<layer id="187" name="/backbone/body/layer1/layer1.2/bn3/Add_1" type="Add" version="opset1">
			<data auto_broadcast="numpy" />
			<input>
				<port id="0" precision="FP32">
					<dim>1</dim>
					<dim>256</dim>
					<dim>136</dim>
					<dim>336</dim>
				</port>
				<port id="1" precision="FP32">
					<dim>1</dim>
					<dim>256</dim>
					<dim>1</dim>
					<dim>1</dim>
				</port>
			</input>
			<output>
				<port id="2" precision="FP32" names="/backbone/body/layer1/layer1.2/bn3/Add_1_output_0">
					<dim>1</dim>
					<dim>256</dim>
					<dim>136</dim>
					<dim>336</dim>
				</port>
			</output>
		</layer>
		<layer id="188" name="/backbone/body/layer1/layer1.2/Add" type="Add" version="opset1">
			<data auto_broadcast="numpy" />
			<input>
				<port id="0" precision="FP32">
					<dim>1</dim>
					<dim>256</dim>
					<dim>136</dim>
					<dim>336</dim>
				</port>
				<port id="1" precision="FP32">
					<dim>1</dim>
					<dim>256</dim>
					<dim>136</dim>
					<dim>336</dim>
				</port>
			</input>
			<output>
				<port id="2" precision="FP32" names="/backbone/body/layer1/layer1.2/Add_output_0">
					<dim>1</dim>
					<dim>256</dim>
					<dim>136</dim>
					<dim>336</dim>
				</port>
			</output>
		</layer>
		<layer id="189" name="/backbone/body/layer1/layer1.2/relu_2/Relu" type="ReLU" version="opset1">
			<input>
				<port id="0" precision="FP32">
					<dim>1</dim>
					<dim>256</dim>
					<dim>136</dim>
					<dim>336</dim>
				</port>
			</input>
			<output>
				<port id="1" precision="FP32" names="/backbone/body/layer1/layer1.2/relu_2/Relu_output_0">
					<dim>1</dim>
					<dim>256</dim>
					<dim>136</dim>
					<dim>336</dim>
				</port>
			</output>
		</layer>
		<layer id="190" name="backbone.fpn.inner_blocks.0.0.weight_compressed" type="Const" version="opset1">
			<data element_type="f16" shape="256, 256, 1, 1" offset="447870" size="131072" />
			<output>
				<port id="0" precision="FP16">
					<dim>256</dim>
					<dim>256</dim>
					<dim>1</dim>
					<dim>1</dim>
				</port>
			</output>
		</layer>
		<layer id="191" name="backbone.fpn.inner_blocks.0.0.weight" type="Convert" version="opset1">
			<data destination_type="f32" />
			<rt_info>
				<attribute name="decompression" version="0" />
			</rt_info>
			<input>
				<port id="0" precision="FP16">
					<dim>256</dim>
					<dim>256</dim>
					<dim>1</dim>
					<dim>1</dim>
				</port>
			</input>
			<output>
				<port id="1" precision="FP32" names="backbone.fpn.inner_blocks.0.0.weight">
					<dim>256</dim>
					<dim>256</dim>
					<dim>1</dim>
					<dim>1</dim>
				</port>
			</output>
		</layer>
		<layer id="192" name="/backbone/fpn/inner_blocks.0/inner_blocks.0.0/Conv/WithoutBiases" type="Convolution" version="opset1">
			<data strides="1, 1" dilations="1, 1" pads_begin="0, 0" pads_end="0, 0" auto_pad="explicit" />
			<input>
				<port id="0" precision="FP32">
					<dim>1</dim>
					<dim>256</dim>
					<dim>136</dim>
					<dim>336</dim>
				</port>
				<port id="1" precision="FP32">
					<dim>256</dim>
					<dim>256</dim>
					<dim>1</dim>
					<dim>1</dim>
				</port>
			</input>
			<output>
				<port id="2" precision="FP32">
					<dim>1</dim>
					<dim>256</dim>
					<dim>136</dim>
					<dim>336</dim>
				</port>
			</output>
		</layer>
		<layer id="193" name="Reshape_3942_compressed" type="Const" version="opset1">
			<data element_type="f16" shape="1, 256, 1, 1" offset="578942" size="512" />
			<output>
				<port id="0" precision="FP16">
					<dim>1</dim>
					<dim>256</dim>
					<dim>1</dim>
					<dim>1</dim>
				</port>
			</output>
		</layer>
		<layer id="194" name="Reshape_3942" type="Convert" version="opset1">
			<data destination_type="f32" />
			<rt_info>
				<attribute name="decompression" version="0" />
			</rt_info>
			<input>
				<port id="0" precision="FP16">
					<dim>1</dim>
					<dim>256</dim>
					<dim>1</dim>
					<dim>1</dim>
				</port>
			</input>
			<output>
				<port id="1" precision="FP32">
					<dim>1</dim>
					<dim>256</dim>
					<dim>1</dim>
					<dim>1</dim>
				</port>
			</output>
		</layer>
		<layer id="195" name="/backbone/fpn/inner_blocks.0/inner_blocks.0.0/Conv" type="Add" version="opset1">
			<data auto_broadcast="numpy" />
			<input>
				<port id="0" precision="FP32">
					<dim>1</dim>
					<dim>256</dim>
					<dim>136</dim>
					<dim>336</dim>
				</port>
				<port id="1" precision="FP32">
					<dim>1</dim>
					<dim>256</dim>
					<dim>1</dim>
					<dim>1</dim>
				</port>
			</input>
			<output>
				<port id="2" precision="FP32" names="/backbone/fpn/inner_blocks.0/inner_blocks.0.0/Conv_output_0">
					<dim>1</dim>
					<dim>256</dim>
					<dim>136</dim>
					<dim>336</dim>
				</port>
			</output>
		</layer>
		<layer id="196" name="Multiply_102111_compressed" type="Const" version="opset1">
			<data element_type="f16" shape="128, 256, 1, 1" offset="579454" size="65536" />
			<output>
				<port id="0" precision="FP16">
					<dim>128</dim>
					<dim>256</dim>
					<dim>1</dim>
					<dim>1</dim>
				</port>
			</output>
		</layer>
		<layer id="197" name="Multiply_102111" type="Convert" version="opset1">
			<data destination_type="f32" />
			<rt_info>
				<attribute name="decompression" version="0" />
			</rt_info>
			<input>
				<port id="0" precision="FP16">
					<dim>128</dim>
					<dim>256</dim>
					<dim>1</dim>
					<dim>1</dim>
				</port>
			</input>
			<output>
				<port id="1" precision="FP32">
					<dim>128</dim>
					<dim>256</dim>
					<dim>1</dim>
					<dim>1</dim>
				</port>
			</output>
		</layer>
		<layer id="198" name="/backbone/body/layer2/layer2.0/bn1/Mul_2" type="Convolution" version="opset1">
			<data strides="1, 1" dilations="1, 1" pads_begin="0, 0" pads_end="0, 0" auto_pad="explicit" />
			<input>
				<port id="0" precision="FP32">
					<dim>1</dim>
					<dim>256</dim>
					<dim>136</dim>
					<dim>336</dim>
				</port>
				<port id="1" precision="FP32">
					<dim>128</dim>
					<dim>256</dim>
					<dim>1</dim>
					<dim>1</dim>
				</port>
			</input>
			<output>
				<port id="2" precision="FP32" names="/backbone/body/layer2/layer2.0/bn1/Mul_2_output_0">
					<dim>1</dim>
					<dim>128</dim>
					<dim>136</dim>
					<dim>336</dim>
				</port>
			</output>
		</layer>
		<layer id="199" name="/backbone/body/layer2/layer2.0/bn1/Sub_compressed" type="Const" version="opset1">
			<data element_type="f16" shape="1, 128, 1, 1" offset="644990" size="256" />
			<output>
				<port id="0" precision="FP16">
					<dim>1</dim>
					<dim>128</dim>
					<dim>1</dim>
					<dim>1</dim>
				</port>
			</output>
		</layer>
		<layer id="200" name="/backbone/body/layer2/layer2.0/bn1/Sub" type="Convert" version="opset1">
			<data destination_type="f32" />
			<rt_info>
				<attribute name="decompression" version="0" />
			</rt_info>
			<input>
				<port id="0" precision="FP16">
					<dim>1</dim>
					<dim>128</dim>
					<dim>1</dim>
					<dim>1</dim>
				</port>
			</input>
			<output>
				<port id="1" precision="FP32" names="/backbone/body/layer2/layer2.0/bn1/Sub_output_0">
					<dim>1</dim>
					<dim>128</dim>
					<dim>1</dim>
					<dim>1</dim>
				</port>
			</output>
		</layer>
		<layer id="201" name="/backbone/body/layer2/layer2.0/bn1/Add_1" type="Add" version="opset1">
			<data auto_broadcast="numpy" />
			<input>
				<port id="0" precision="FP32">
					<dim>1</dim>
					<dim>128</dim>
					<dim>136</dim>
					<dim>336</dim>
				</port>
				<port id="1" precision="FP32">
					<dim>1</dim>
					<dim>128</dim>
					<dim>1</dim>
					<dim>1</dim>
				</port>
			</input>
			<output>
				<port id="2" precision="FP32" names="/backbone/body/layer2/layer2.0/bn1/Add_1_output_0">
					<dim>1</dim>
					<dim>128</dim>
					<dim>136</dim>
					<dim>336</dim>
				</port>
			</output>
		</layer>
		<layer id="202" name="/backbone/body/layer2/layer2.0/relu/Relu" type="ReLU" version="opset1">
			<input>
				<port id="0" precision="FP32">
					<dim>1</dim>
					<dim>128</dim>
					<dim>136</dim>
					<dim>336</dim>
				</port>
			</input>
			<output>
				<port id="1" precision="FP32" names="/backbone/body/layer2/layer2.0/relu/Relu_output_0">
					<dim>1</dim>
					<dim>128</dim>
					<dim>136</dim>
					<dim>336</dim>
				</port>
			</output>
		</layer>
		<layer id="203" name="Multiply_102120_compressed" type="Const" version="opset1">
			<data element_type="f16" shape="128, 128, 3, 3" offset="645246" size="294912" />
			<output>
				<port id="0" precision="FP16">
					<dim>128</dim>
					<dim>128</dim>
					<dim>3</dim>
					<dim>3</dim>
				</port>
			</output>
		</layer>
		<layer id="204" name="Multiply_102120" type="Convert" version="opset1">
			<data destination_type="f32" />
			<rt_info>
				<attribute name="decompression" version="0" />
			</rt_info>
			<input>
				<port id="0" precision="FP16">
					<dim>128</dim>
					<dim>128</dim>
					<dim>3</dim>
					<dim>3</dim>
				</port>
			</input>
			<output>
				<port id="1" precision="FP32">
					<dim>128</dim>
					<dim>128</dim>
					<dim>3</dim>
					<dim>3</dim>
				</port>
			</output>
		</layer>
		<layer id="205" name="/backbone/body/layer2/layer2.0/bn2/Mul_2" type="Convolution" version="opset1">
			<data strides="2, 2" dilations="1, 1" pads_begin="1, 1" pads_end="1, 1" auto_pad="explicit" />
			<input>
				<port id="0" precision="FP32">
					<dim>1</dim>
					<dim>128</dim>
					<dim>136</dim>
					<dim>336</dim>
				</port>
				<port id="1" precision="FP32">
					<dim>128</dim>
					<dim>128</dim>
					<dim>3</dim>
					<dim>3</dim>
				</port>
			</input>
			<output>
				<port id="2" precision="FP32" names="/backbone/body/layer2/layer2.0/bn2/Mul_2_output_0">
					<dim>1</dim>
					<dim>128</dim>
					<dim>68</dim>
					<dim>168</dim>
				</port>
			</output>
		</layer>
		<layer id="206" name="/backbone/body/layer2/layer2.0/bn2/Sub_compressed" type="Const" version="opset1">
			<data element_type="f16" shape="1, 128, 1, 1" offset="940158" size="256" />
			<output>
				<port id="0" precision="FP16">
					<dim>1</dim>
					<dim>128</dim>
					<dim>1</dim>
					<dim>1</dim>
				</port>
			</output>
		</layer>
		<layer id="207" name="/backbone/body/layer2/layer2.0/bn2/Sub" type="Convert" version="opset1">
			<data destination_type="f32" />
			<rt_info>
				<attribute name="decompression" version="0" />
			</rt_info>
			<input>
				<port id="0" precision="FP16">
					<dim>1</dim>
					<dim>128</dim>
					<dim>1</dim>
					<dim>1</dim>
				</port>
			</input>
			<output>
				<port id="1" precision="FP32" names="/backbone/body/layer2/layer2.0/bn2/Sub_output_0">
					<dim>1</dim>
					<dim>128</dim>
					<dim>1</dim>
					<dim>1</dim>
				</port>
			</output>
		</layer>
		<layer id="208" name="/backbone/body/layer2/layer2.0/bn2/Add_1" type="Add" version="opset1">
			<data auto_broadcast="numpy" />
			<input>
				<port id="0" precision="FP32">
					<dim>1</dim>
					<dim>128</dim>
					<dim>68</dim>
					<dim>168</dim>
				</port>
				<port id="1" precision="FP32">
					<dim>1</dim>
					<dim>128</dim>
					<dim>1</dim>
					<dim>1</dim>
				</port>
			</input>
			<output>
				<port id="2" precision="FP32" names="/backbone/body/layer2/layer2.0/bn2/Add_1_output_0">
					<dim>1</dim>
					<dim>128</dim>
					<dim>68</dim>
					<dim>168</dim>
				</port>
			</output>
		</layer>
		<layer id="209" name="/backbone/body/layer2/layer2.0/relu_1/Relu" type="ReLU" version="opset1">
			<input>
				<port id="0" precision="FP32">
					<dim>1</dim>
					<dim>128</dim>
					<dim>68</dim>
					<dim>168</dim>
				</port>
			</input>
			<output>
				<port id="1" precision="FP32" names="/backbone/body/layer2/layer2.0/relu_1/Relu_output_0">
					<dim>1</dim>
					<dim>128</dim>
					<dim>68</dim>
					<dim>168</dim>
				</port>
			</output>
		</layer>
		<layer id="210" name="Multiply_102129_compressed" type="Const" version="opset1">
			<data element_type="f16" shape="512, 128, 1, 1" offset="940414" size="131072" />
			<output>
				<port id="0" precision="FP16">
					<dim>512</dim>
					<dim>128</dim>
					<dim>1</dim>
					<dim>1</dim>
				</port>
			</output>
		</layer>
		<layer id="211" name="Multiply_102129" type="Convert" version="opset1">
			<data destination_type="f32" />
			<rt_info>
				<attribute name="decompression" version="0" />
			</rt_info>
			<input>
				<port id="0" precision="FP16">
					<dim>512</dim>
					<dim>128</dim>
					<dim>1</dim>
					<dim>1</dim>
				</port>
			</input>
			<output>
				<port id="1" precision="FP32">
					<dim>512</dim>
					<dim>128</dim>
					<dim>1</dim>
					<dim>1</dim>
				</port>
			</output>
		</layer>
		<layer id="212" name="/backbone/body/layer2/layer2.0/bn3/Mul_2" type="Convolution" version="opset1">
			<data strides="1, 1" dilations="1, 1" pads_begin="0, 0" pads_end="0, 0" auto_pad="explicit" />
			<input>
				<port id="0" precision="FP32">
					<dim>1</dim>
					<dim>128</dim>
					<dim>68</dim>
					<dim>168</dim>
				</port>
				<port id="1" precision="FP32">
					<dim>512</dim>
					<dim>128</dim>
					<dim>1</dim>
					<dim>1</dim>
				</port>
			</input>
			<output>
				<port id="2" precision="FP32" names="/backbone/body/layer2/layer2.0/bn3/Mul_2_output_0">
					<dim>1</dim>
					<dim>512</dim>
					<dim>68</dim>
					<dim>168</dim>
				</port>
			</output>
		</layer>
		<layer id="213" name="/backbone/body/layer2/layer2.0/bn3/Sub_compressed" type="Const" version="opset1">
			<data element_type="f16" shape="1, 512, 1, 1" offset="1071486" size="1024" />
			<output>
				<port id="0" precision="FP16">
					<dim>1</dim>
					<dim>512</dim>
					<dim>1</dim>
					<dim>1</dim>
				</port>
			</output>
		</layer>
		<layer id="214" name="/backbone/body/layer2/layer2.0/bn3/Sub" type="Convert" version="opset1">
			<data destination_type="f32" />
			<rt_info>
				<attribute name="decompression" version="0" />
			</rt_info>
			<input>
				<port id="0" precision="FP16">
					<dim>1</dim>
					<dim>512</dim>
					<dim>1</dim>
					<dim>1</dim>
				</port>
			</input>
			<output>
				<port id="1" precision="FP32" names="/backbone/body/layer2/layer2.0/bn3/Sub_output_0">
					<dim>1</dim>
					<dim>512</dim>
					<dim>1</dim>
					<dim>1</dim>
				</port>
			</output>
		</layer>
		<layer id="215" name="/backbone/body/layer2/layer2.0/bn3/Add_1" type="Add" version="opset1">
			<data auto_broadcast="numpy" />
			<input>
				<port id="0" precision="FP32">
					<dim>1</dim>
					<dim>512</dim>
					<dim>68</dim>
					<dim>168</dim>
				</port>
				<port id="1" precision="FP32">
					<dim>1</dim>
					<dim>512</dim>
					<dim>1</dim>
					<dim>1</dim>
				</port>
			</input>
			<output>
				<port id="2" precision="FP32" names="/backbone/body/layer2/layer2.0/bn3/Add_1_output_0">
					<dim>1</dim>
					<dim>512</dim>
					<dim>68</dim>
					<dim>168</dim>
				</port>
			</output>
		</layer>
		<layer id="216" name="Multiply_102138_compressed" type="Const" version="opset1">
			<data element_type="f16" shape="512, 256, 1, 1" offset="1072510" size="262144" />
			<output>
				<port id="0" precision="FP16">
					<dim>512</dim>
					<dim>256</dim>
					<dim>1</dim>
					<dim>1</dim>
				</port>
			</output>
		</layer>
		<layer id="217" name="Multiply_102138" type="Convert" version="opset1">
			<data destination_type="f32" />
			<rt_info>
				<attribute name="decompression" version="0" />
			</rt_info>
			<input>
				<port id="0" precision="FP16">
					<dim>512</dim>
					<dim>256</dim>
					<dim>1</dim>
					<dim>1</dim>
				</port>
			</input>
			<output>
				<port id="1" precision="FP32">
					<dim>512</dim>
					<dim>256</dim>
					<dim>1</dim>
					<dim>1</dim>
				</port>
			</output>
		</layer>
		<layer id="218" name="/backbone/body/layer2/layer2.0/downsample/downsample.1/Mul_2" type="Convolution" version="opset1">
			<data strides="2, 2" dilations="1, 1" pads_begin="0, 0" pads_end="0, 0" auto_pad="explicit" />
			<input>
				<port id="0" precision="FP32">
					<dim>1</dim>
					<dim>256</dim>
					<dim>136</dim>
					<dim>336</dim>
				</port>
				<port id="1" precision="FP32">
					<dim>512</dim>
					<dim>256</dim>
					<dim>1</dim>
					<dim>1</dim>
				</port>
			</input>
			<output>
				<port id="2" precision="FP32" names="/backbone/body/layer2/layer2.0/downsample/downsample.1/Mul_2_output_0">
					<dim>1</dim>
					<dim>512</dim>
					<dim>68</dim>
					<dim>168</dim>
				</port>
			</output>
		</layer>
		<layer id="219" name="/backbone/body/layer2/layer2.0/downsample/downsample.1/Sub_compressed" type="Const" version="opset1">
			<data element_type="f16" shape="1, 512, 1, 1" offset="1334654" size="1024" />
			<output>
				<port id="0" precision="FP16">
					<dim>1</dim>
					<dim>512</dim>
					<dim>1</dim>
					<dim>1</dim>
				</port>
			</output>
		</layer>
		<layer id="220" name="/backbone/body/layer2/layer2.0/downsample/downsample.1/Sub" type="Convert" version="opset1">
			<data destination_type="f32" />
			<rt_info>
				<attribute name="decompression" version="0" />
			</rt_info>
			<input>
				<port id="0" precision="FP16">
					<dim>1</dim>
					<dim>512</dim>
					<dim>1</dim>
					<dim>1</dim>
				</port>
			</input>
			<output>
				<port id="1" precision="FP32" names="/backbone/body/layer2/layer2.0/downsample/downsample.1/Sub_output_0">
					<dim>1</dim>
					<dim>512</dim>
					<dim>1</dim>
					<dim>1</dim>
				</port>
			</output>
		</layer>
		<layer id="221" name="/backbone/body/layer2/layer2.0/downsample/downsample.1/Add_1" type="Add" version="opset1">
			<data auto_broadcast="numpy" />
			<input>
				<port id="0" precision="FP32">
					<dim>1</dim>
					<dim>512</dim>
					<dim>68</dim>
					<dim>168</dim>
				</port>
				<port id="1" precision="FP32">
					<dim>1</dim>
					<dim>512</dim>
					<dim>1</dim>
					<dim>1</dim>
				</port>
			</input>
			<output>
				<port id="2" precision="FP32" names="/backbone/body/layer2/layer2.0/downsample/downsample.1/Add_1_output_0">
					<dim>1</dim>
					<dim>512</dim>
					<dim>68</dim>
					<dim>168</dim>
				</port>
			</output>
		</layer>
		<layer id="222" name="/backbone/body/layer2/layer2.0/Add" type="Add" version="opset1">
			<data auto_broadcast="numpy" />
			<input>
				<port id="0" precision="FP32">
					<dim>1</dim>
					<dim>512</dim>
					<dim>68</dim>
					<dim>168</dim>
				</port>
				<port id="1" precision="FP32">
					<dim>1</dim>
					<dim>512</dim>
					<dim>68</dim>
					<dim>168</dim>
				</port>
			</input>
			<output>
				<port id="2" precision="FP32" names="/backbone/body/layer2/layer2.0/Add_output_0">
					<dim>1</dim>
					<dim>512</dim>
					<dim>68</dim>
					<dim>168</dim>
				</port>
			</output>
		</layer>
		<layer id="223" name="/backbone/body/layer2/layer2.0/relu_2/Relu" type="ReLU" version="opset1">
			<input>
				<port id="0" precision="FP32">
					<dim>1</dim>
					<dim>512</dim>
					<dim>68</dim>
					<dim>168</dim>
				</port>
			</input>
			<output>
				<port id="1" precision="FP32" names="/backbone/body/layer2/layer2.0/relu_2/Relu_output_0">
					<dim>1</dim>
					<dim>512</dim>
					<dim>68</dim>
					<dim>168</dim>
				</port>
			</output>
		</layer>
		<layer id="224" name="Multiply_102147_compressed" type="Const" version="opset1">
			<data element_type="f16" shape="128, 512, 1, 1" offset="1335678" size="131072" />
			<output>
				<port id="0" precision="FP16">
					<dim>128</dim>
					<dim>512</dim>
					<dim>1</dim>
					<dim>1</dim>
				</port>
			</output>
		</layer>
		<layer id="225" name="Multiply_102147" type="Convert" version="opset1">
			<data destination_type="f32" />
			<rt_info>
				<attribute name="decompression" version="0" />
			</rt_info>
			<input>
				<port id="0" precision="FP16">
					<dim>128</dim>
					<dim>512</dim>
					<dim>1</dim>
					<dim>1</dim>
				</port>
			</input>
			<output>
				<port id="1" precision="FP32">
					<dim>128</dim>
					<dim>512</dim>
					<dim>1</dim>
					<dim>1</dim>
				</port>
			</output>
		</layer>
		<layer id="226" name="/backbone/body/layer2/layer2.1/bn1/Mul_2" type="Convolution" version="opset1">
			<data strides="1, 1" dilations="1, 1" pads_begin="0, 0" pads_end="0, 0" auto_pad="explicit" />
			<input>
				<port id="0" precision="FP32">
					<dim>1</dim>
					<dim>512</dim>
					<dim>68</dim>
					<dim>168</dim>
				</port>
				<port id="1" precision="FP32">
					<dim>128</dim>
					<dim>512</dim>
					<dim>1</dim>
					<dim>1</dim>
				</port>
			</input>
			<output>
				<port id="2" precision="FP32" names="/backbone/body/layer2/layer2.1/bn1/Mul_2_output_0">
					<dim>1</dim>
					<dim>128</dim>
					<dim>68</dim>
					<dim>168</dim>
				</port>
			</output>
		</layer>
		<layer id="227" name="/backbone/body/layer2/layer2.1/bn1/Sub_compressed" type="Const" version="opset1">
			<data element_type="f16" shape="1, 128, 1, 1" offset="1466750" size="256" />
			<output>
				<port id="0" precision="FP16">
					<dim>1</dim>
					<dim>128</dim>
					<dim>1</dim>
					<dim>1</dim>
				</port>
			</output>
		</layer>
		<layer id="228" name="/backbone/body/layer2/layer2.1/bn1/Sub" type="Convert" version="opset1">
			<data destination_type="f32" />
			<rt_info>
				<attribute name="decompression" version="0" />
			</rt_info>
			<input>
				<port id="0" precision="FP16">
					<dim>1</dim>
					<dim>128</dim>
					<dim>1</dim>
					<dim>1</dim>
				</port>
			</input>
			<output>
				<port id="1" precision="FP32" names="/backbone/body/layer2/layer2.1/bn1/Sub_output_0">
					<dim>1</dim>
					<dim>128</dim>
					<dim>1</dim>
					<dim>1</dim>
				</port>
			</output>
		</layer>
		<layer id="229" name="/backbone/body/layer2/layer2.1/bn1/Add_1" type="Add" version="opset1">
			<data auto_broadcast="numpy" />
			<input>
				<port id="0" precision="FP32">
					<dim>1</dim>
					<dim>128</dim>
					<dim>68</dim>
					<dim>168</dim>
				</port>
				<port id="1" precision="FP32">
					<dim>1</dim>
					<dim>128</dim>
					<dim>1</dim>
					<dim>1</dim>
				</port>
			</input>
			<output>
				<port id="2" precision="FP32" names="/backbone/body/layer2/layer2.1/bn1/Add_1_output_0">
					<dim>1</dim>
					<dim>128</dim>
					<dim>68</dim>
					<dim>168</dim>
				</port>
			</output>
		</layer>
		<layer id="230" name="/backbone/body/layer2/layer2.1/relu/Relu" type="ReLU" version="opset1">
			<input>
				<port id="0" precision="FP32">
					<dim>1</dim>
					<dim>128</dim>
					<dim>68</dim>
					<dim>168</dim>
				</port>
			</input>
			<output>
				<port id="1" precision="FP32" names="/backbone/body/layer2/layer2.1/relu/Relu_output_0">
					<dim>1</dim>
					<dim>128</dim>
					<dim>68</dim>
					<dim>168</dim>
				</port>
			</output>
		</layer>
		<layer id="231" name="Multiply_102156_compressed" type="Const" version="opset1">
			<data element_type="f16" shape="128, 128, 3, 3" offset="1467006" size="294912" />
			<output>
				<port id="0" precision="FP16">
					<dim>128</dim>
					<dim>128</dim>
					<dim>3</dim>
					<dim>3</dim>
				</port>
			</output>
		</layer>
		<layer id="232" name="Multiply_102156" type="Convert" version="opset1">
			<data destination_type="f32" />
			<rt_info>
				<attribute name="decompression" version="0" />
			</rt_info>
			<input>
				<port id="0" precision="FP16">
					<dim>128</dim>
					<dim>128</dim>
					<dim>3</dim>
					<dim>3</dim>
				</port>
			</input>
			<output>
				<port id="1" precision="FP32">
					<dim>128</dim>
					<dim>128</dim>
					<dim>3</dim>
					<dim>3</dim>
				</port>
			</output>
		</layer>
		<layer id="233" name="/backbone/body/layer2/layer2.1/bn2/Mul_2" type="Convolution" version="opset1">
			<data strides="1, 1" dilations="1, 1" pads_begin="1, 1" pads_end="1, 1" auto_pad="explicit" />
			<input>
				<port id="0" precision="FP32">
					<dim>1</dim>
					<dim>128</dim>
					<dim>68</dim>
					<dim>168</dim>
				</port>
				<port id="1" precision="FP32">
					<dim>128</dim>
					<dim>128</dim>
					<dim>3</dim>
					<dim>3</dim>
				</port>
			</input>
			<output>
				<port id="2" precision="FP32" names="/backbone/body/layer2/layer2.1/bn2/Mul_2_output_0">
					<dim>1</dim>
					<dim>128</dim>
					<dim>68</dim>
					<dim>168</dim>
				</port>
			</output>
		</layer>
		<layer id="234" name="/backbone/body/layer2/layer2.1/bn2/Sub_compressed" type="Const" version="opset1">
			<data element_type="f16" shape="1, 128, 1, 1" offset="1761918" size="256" />
			<output>
				<port id="0" precision="FP16">
					<dim>1</dim>
					<dim>128</dim>
					<dim>1</dim>
					<dim>1</dim>
				</port>
			</output>
		</layer>
		<layer id="235" name="/backbone/body/layer2/layer2.1/bn2/Sub" type="Convert" version="opset1">
			<data destination_type="f32" />
			<rt_info>
				<attribute name="decompression" version="0" />
			</rt_info>
			<input>
				<port id="0" precision="FP16">
					<dim>1</dim>
					<dim>128</dim>
					<dim>1</dim>
					<dim>1</dim>
				</port>
			</input>
			<output>
				<port id="1" precision="FP32" names="/backbone/body/layer2/layer2.1/bn2/Sub_output_0">
					<dim>1</dim>
					<dim>128</dim>
					<dim>1</dim>
					<dim>1</dim>
				</port>
			</output>
		</layer>
		<layer id="236" name="/backbone/body/layer2/layer2.1/bn2/Add_1" type="Add" version="opset1">
			<data auto_broadcast="numpy" />
			<input>
				<port id="0" precision="FP32">
					<dim>1</dim>
					<dim>128</dim>
					<dim>68</dim>
					<dim>168</dim>
				</port>
				<port id="1" precision="FP32">
					<dim>1</dim>
					<dim>128</dim>
					<dim>1</dim>
					<dim>1</dim>
				</port>
			</input>
			<output>
				<port id="2" precision="FP32" names="/backbone/body/layer2/layer2.1/bn2/Add_1_output_0">
					<dim>1</dim>
					<dim>128</dim>
					<dim>68</dim>
					<dim>168</dim>
				</port>
			</output>
		</layer>
		<layer id="237" name="/backbone/body/layer2/layer2.1/relu_1/Relu" type="ReLU" version="opset1">
			<input>
				<port id="0" precision="FP32">
					<dim>1</dim>
					<dim>128</dim>
					<dim>68</dim>
					<dim>168</dim>
				</port>
			</input>
			<output>
				<port id="1" precision="FP32" names="/backbone/body/layer2/layer2.1/relu_1/Relu_output_0">
					<dim>1</dim>
					<dim>128</dim>
					<dim>68</dim>
					<dim>168</dim>
				</port>
			</output>
		</layer>
		<layer id="238" name="Multiply_102165_compressed" type="Const" version="opset1">
			<data element_type="f16" shape="512, 128, 1, 1" offset="1762174" size="131072" />
			<output>
				<port id="0" precision="FP16">
					<dim>512</dim>
					<dim>128</dim>
					<dim>1</dim>
					<dim>1</dim>
				</port>
			</output>
		</layer>
		<layer id="239" name="Multiply_102165" type="Convert" version="opset1">
			<data destination_type="f32" />
			<rt_info>
				<attribute name="decompression" version="0" />
			</rt_info>
			<input>
				<port id="0" precision="FP16">
					<dim>512</dim>
					<dim>128</dim>
					<dim>1</dim>
					<dim>1</dim>
				</port>
			</input>
			<output>
				<port id="1" precision="FP32">
					<dim>512</dim>
					<dim>128</dim>
					<dim>1</dim>
					<dim>1</dim>
				</port>
			</output>
		</layer>
		<layer id="240" name="/backbone/body/layer2/layer2.1/bn3/Mul_2" type="Convolution" version="opset1">
			<data strides="1, 1" dilations="1, 1" pads_begin="0, 0" pads_end="0, 0" auto_pad="explicit" />
			<input>
				<port id="0" precision="FP32">
					<dim>1</dim>
					<dim>128</dim>
					<dim>68</dim>
					<dim>168</dim>
				</port>
				<port id="1" precision="FP32">
					<dim>512</dim>
					<dim>128</dim>
					<dim>1</dim>
					<dim>1</dim>
				</port>
			</input>
			<output>
				<port id="2" precision="FP32" names="/backbone/body/layer2/layer2.1/bn3/Mul_2_output_0">
					<dim>1</dim>
					<dim>512</dim>
					<dim>68</dim>
					<dim>168</dim>
				</port>
			</output>
		</layer>
		<layer id="241" name="/backbone/body/layer2/layer2.1/bn3/Sub_compressed" type="Const" version="opset1">
			<data element_type="f16" shape="1, 512, 1, 1" offset="1893246" size="1024" />
			<output>
				<port id="0" precision="FP16">
					<dim>1</dim>
					<dim>512</dim>
					<dim>1</dim>
					<dim>1</dim>
				</port>
			</output>
		</layer>
		<layer id="242" name="/backbone/body/layer2/layer2.1/bn3/Sub" type="Convert" version="opset1">
			<data destination_type="f32" />
			<rt_info>
				<attribute name="decompression" version="0" />
			</rt_info>
			<input>
				<port id="0" precision="FP16">
					<dim>1</dim>
					<dim>512</dim>
					<dim>1</dim>
					<dim>1</dim>
				</port>
			</input>
			<output>
				<port id="1" precision="FP32" names="/backbone/body/layer2/layer2.1/bn3/Sub_output_0">
					<dim>1</dim>
					<dim>512</dim>
					<dim>1</dim>
					<dim>1</dim>
				</port>
			</output>
		</layer>
		<layer id="243" name="/backbone/body/layer2/layer2.1/bn3/Add_1" type="Add" version="opset1">
			<data auto_broadcast="numpy" />
			<input>
				<port id="0" precision="FP32">
					<dim>1</dim>
					<dim>512</dim>
					<dim>68</dim>
					<dim>168</dim>
				</port>
				<port id="1" precision="FP32">
					<dim>1</dim>
					<dim>512</dim>
					<dim>1</dim>
					<dim>1</dim>
				</port>
			</input>
			<output>
				<port id="2" precision="FP32" names="/backbone/body/layer2/layer2.1/bn3/Add_1_output_0">
					<dim>1</dim>
					<dim>512</dim>
					<dim>68</dim>
					<dim>168</dim>
				</port>
			</output>
		</layer>
		<layer id="244" name="/backbone/body/layer2/layer2.1/Add" type="Add" version="opset1">
			<data auto_broadcast="numpy" />
			<input>
				<port id="0" precision="FP32">
					<dim>1</dim>
					<dim>512</dim>
					<dim>68</dim>
					<dim>168</dim>
				</port>
				<port id="1" precision="FP32">
					<dim>1</dim>
					<dim>512</dim>
					<dim>68</dim>
					<dim>168</dim>
				</port>
			</input>
			<output>
				<port id="2" precision="FP32" names="/backbone/body/layer2/layer2.1/Add_output_0">
					<dim>1</dim>
					<dim>512</dim>
					<dim>68</dim>
					<dim>168</dim>
				</port>
			</output>
		</layer>
		<layer id="245" name="/backbone/body/layer2/layer2.1/relu_2/Relu" type="ReLU" version="opset1">
			<input>
				<port id="0" precision="FP32">
					<dim>1</dim>
					<dim>512</dim>
					<dim>68</dim>
					<dim>168</dim>
				</port>
			</input>
			<output>
				<port id="1" precision="FP32" names="/backbone/body/layer2/layer2.1/relu_2/Relu_output_0">
					<dim>1</dim>
					<dim>512</dim>
					<dim>68</dim>
					<dim>168</dim>
				</port>
			</output>
		</layer>
		<layer id="246" name="Multiply_102174_compressed" type="Const" version="opset1">
			<data element_type="f16" shape="128, 512, 1, 1" offset="1894270" size="131072" />
			<output>
				<port id="0" precision="FP16">
					<dim>128</dim>
					<dim>512</dim>
					<dim>1</dim>
					<dim>1</dim>
				</port>
			</output>
		</layer>
		<layer id="247" name="Multiply_102174" type="Convert" version="opset1">
			<data destination_type="f32" />
			<rt_info>
				<attribute name="decompression" version="0" />
			</rt_info>
			<input>
				<port id="0" precision="FP16">
					<dim>128</dim>
					<dim>512</dim>
					<dim>1</dim>
					<dim>1</dim>
				</port>
			</input>
			<output>
				<port id="1" precision="FP32">
					<dim>128</dim>
					<dim>512</dim>
					<dim>1</dim>
					<dim>1</dim>
				</port>
			</output>
		</layer>
		<layer id="248" name="/backbone/body/layer2/layer2.2/bn1/Mul_2" type="Convolution" version="opset1">
			<data strides="1, 1" dilations="1, 1" pads_begin="0, 0" pads_end="0, 0" auto_pad="explicit" />
			<input>
				<port id="0" precision="FP32">
					<dim>1</dim>
					<dim>512</dim>
					<dim>68</dim>
					<dim>168</dim>
				</port>
				<port id="1" precision="FP32">
					<dim>128</dim>
					<dim>512</dim>
					<dim>1</dim>
					<dim>1</dim>
				</port>
			</input>
			<output>
				<port id="2" precision="FP32" names="/backbone/body/layer2/layer2.2/bn1/Mul_2_output_0">
					<dim>1</dim>
					<dim>128</dim>
					<dim>68</dim>
					<dim>168</dim>
				</port>
			</output>
		</layer>
		<layer id="249" name="/backbone/body/layer2/layer2.2/bn1/Sub_compressed" type="Const" version="opset1">
			<data element_type="f16" shape="1, 128, 1, 1" offset="2025342" size="256" />
			<output>
				<port id="0" precision="FP16">
					<dim>1</dim>
					<dim>128</dim>
					<dim>1</dim>
					<dim>1</dim>
				</port>
			</output>
		</layer>
		<layer id="250" name="/backbone/body/layer2/layer2.2/bn1/Sub" type="Convert" version="opset1">
			<data destination_type="f32" />
			<rt_info>
				<attribute name="decompression" version="0" />
			</rt_info>
			<input>
				<port id="0" precision="FP16">
					<dim>1</dim>
					<dim>128</dim>
					<dim>1</dim>
					<dim>1</dim>
				</port>
			</input>
			<output>
				<port id="1" precision="FP32" names="/backbone/body/layer2/layer2.2/bn1/Sub_output_0">
					<dim>1</dim>
					<dim>128</dim>
					<dim>1</dim>
					<dim>1</dim>
				</port>
			</output>
		</layer>
		<layer id="251" name="/backbone/body/layer2/layer2.2/bn1/Add_1" type="Add" version="opset1">
			<data auto_broadcast="numpy" />
			<input>
				<port id="0" precision="FP32">
					<dim>1</dim>
					<dim>128</dim>
					<dim>68</dim>
					<dim>168</dim>
				</port>
				<port id="1" precision="FP32">
					<dim>1</dim>
					<dim>128</dim>
					<dim>1</dim>
					<dim>1</dim>
				</port>
			</input>
			<output>
				<port id="2" precision="FP32" names="/backbone/body/layer2/layer2.2/bn1/Add_1_output_0">
					<dim>1</dim>
					<dim>128</dim>
					<dim>68</dim>
					<dim>168</dim>
				</port>
			</output>
		</layer>
		<layer id="252" name="/backbone/body/layer2/layer2.2/relu/Relu" type="ReLU" version="opset1">
			<input>
				<port id="0" precision="FP32">
					<dim>1</dim>
					<dim>128</dim>
					<dim>68</dim>
					<dim>168</dim>
				</port>
			</input>
			<output>
				<port id="1" precision="FP32" names="/backbone/body/layer2/layer2.2/relu/Relu_output_0">
					<dim>1</dim>
					<dim>128</dim>
					<dim>68</dim>
					<dim>168</dim>
				</port>
			</output>
		</layer>
		<layer id="253" name="Multiply_102183_compressed" type="Const" version="opset1">
			<data element_type="f16" shape="128, 128, 3, 3" offset="2025598" size="294912" />
			<output>
				<port id="0" precision="FP16">
					<dim>128</dim>
					<dim>128</dim>
					<dim>3</dim>
					<dim>3</dim>
				</port>
			</output>
		</layer>
		<layer id="254" name="Multiply_102183" type="Convert" version="opset1">
			<data destination_type="f32" />
			<rt_info>
				<attribute name="decompression" version="0" />
			</rt_info>
			<input>
				<port id="0" precision="FP16">
					<dim>128</dim>
					<dim>128</dim>
					<dim>3</dim>
					<dim>3</dim>
				</port>
			</input>
			<output>
				<port id="1" precision="FP32">
					<dim>128</dim>
					<dim>128</dim>
					<dim>3</dim>
					<dim>3</dim>
				</port>
			</output>
		</layer>
		<layer id="255" name="/backbone/body/layer2/layer2.2/bn2/Mul_2" type="Convolution" version="opset1">
			<data strides="1, 1" dilations="1, 1" pads_begin="1, 1" pads_end="1, 1" auto_pad="explicit" />
			<input>
				<port id="0" precision="FP32">
					<dim>1</dim>
					<dim>128</dim>
					<dim>68</dim>
					<dim>168</dim>
				</port>
				<port id="1" precision="FP32">
					<dim>128</dim>
					<dim>128</dim>
					<dim>3</dim>
					<dim>3</dim>
				</port>
			</input>
			<output>
				<port id="2" precision="FP32" names="/backbone/body/layer2/layer2.2/bn2/Mul_2_output_0">
					<dim>1</dim>
					<dim>128</dim>
					<dim>68</dim>
					<dim>168</dim>
				</port>
			</output>
		</layer>
		<layer id="256" name="/backbone/body/layer2/layer2.2/bn2/Sub_compressed" type="Const" version="opset1">
			<data element_type="f16" shape="1, 128, 1, 1" offset="2320510" size="256" />
			<output>
				<port id="0" precision="FP16">
					<dim>1</dim>
					<dim>128</dim>
					<dim>1</dim>
					<dim>1</dim>
				</port>
			</output>
		</layer>
		<layer id="257" name="/backbone/body/layer2/layer2.2/bn2/Sub" type="Convert" version="opset1">
			<data destination_type="f32" />
			<rt_info>
				<attribute name="decompression" version="0" />
			</rt_info>
			<input>
				<port id="0" precision="FP16">
					<dim>1</dim>
					<dim>128</dim>
					<dim>1</dim>
					<dim>1</dim>
				</port>
			</input>
			<output>
				<port id="1" precision="FP32" names="/backbone/body/layer2/layer2.2/bn2/Sub_output_0">
					<dim>1</dim>
					<dim>128</dim>
					<dim>1</dim>
					<dim>1</dim>
				</port>
			</output>
		</layer>
		<layer id="258" name="/backbone/body/layer2/layer2.2/bn2/Add_1" type="Add" version="opset1">
			<data auto_broadcast="numpy" />
			<input>
				<port id="0" precision="FP32">
					<dim>1</dim>
					<dim>128</dim>
					<dim>68</dim>
					<dim>168</dim>
				</port>
				<port id="1" precision="FP32">
					<dim>1</dim>
					<dim>128</dim>
					<dim>1</dim>
					<dim>1</dim>
				</port>
			</input>
			<output>
				<port id="2" precision="FP32" names="/backbone/body/layer2/layer2.2/bn2/Add_1_output_0">
					<dim>1</dim>
					<dim>128</dim>
					<dim>68</dim>
					<dim>168</dim>
				</port>
			</output>
		</layer>
		<layer id="259" name="/backbone/body/layer2/layer2.2/relu_1/Relu" type="ReLU" version="opset1">
			<input>
				<port id="0" precision="FP32">
					<dim>1</dim>
					<dim>128</dim>
					<dim>68</dim>
					<dim>168</dim>
				</port>
			</input>
			<output>
				<port id="1" precision="FP32" names="/backbone/body/layer2/layer2.2/relu_1/Relu_output_0">
					<dim>1</dim>
					<dim>128</dim>
					<dim>68</dim>
					<dim>168</dim>
				</port>
			</output>
		</layer>
		<layer id="260" name="Multiply_102192_compressed" type="Const" version="opset1">
			<data element_type="f16" shape="512, 128, 1, 1" offset="2320766" size="131072" />
			<output>
				<port id="0" precision="FP16">
					<dim>512</dim>
					<dim>128</dim>
					<dim>1</dim>
					<dim>1</dim>
				</port>
			</output>
		</layer>
		<layer id="261" name="Multiply_102192" type="Convert" version="opset1">
			<data destination_type="f32" />
			<rt_info>
				<attribute name="decompression" version="0" />
			</rt_info>
			<input>
				<port id="0" precision="FP16">
					<dim>512</dim>
					<dim>128</dim>
					<dim>1</dim>
					<dim>1</dim>
				</port>
			</input>
			<output>
				<port id="1" precision="FP32">
					<dim>512</dim>
					<dim>128</dim>
					<dim>1</dim>
					<dim>1</dim>
				</port>
			</output>
		</layer>
		<layer id="262" name="/backbone/body/layer2/layer2.2/bn3/Mul_2" type="Convolution" version="opset1">
			<data strides="1, 1" dilations="1, 1" pads_begin="0, 0" pads_end="0, 0" auto_pad="explicit" />
			<input>
				<port id="0" precision="FP32">
					<dim>1</dim>
					<dim>128</dim>
					<dim>68</dim>
					<dim>168</dim>
				</port>
				<port id="1" precision="FP32">
					<dim>512</dim>
					<dim>128</dim>
					<dim>1</dim>
					<dim>1</dim>
				</port>
			</input>
			<output>
				<port id="2" precision="FP32" names="/backbone/body/layer2/layer2.2/bn3/Mul_2_output_0">
					<dim>1</dim>
					<dim>512</dim>
					<dim>68</dim>
					<dim>168</dim>
				</port>
			</output>
		</layer>
		<layer id="263" name="/backbone/body/layer2/layer2.2/bn3/Sub_compressed" type="Const" version="opset1">
			<data element_type="f16" shape="1, 512, 1, 1" offset="2451838" size="1024" />
			<output>
				<port id="0" precision="FP16">
					<dim>1</dim>
					<dim>512</dim>
					<dim>1</dim>
					<dim>1</dim>
				</port>
			</output>
		</layer>
		<layer id="264" name="/backbone/body/layer2/layer2.2/bn3/Sub" type="Convert" version="opset1">
			<data destination_type="f32" />
			<rt_info>
				<attribute name="decompression" version="0" />
			</rt_info>
			<input>
				<port id="0" precision="FP16">
					<dim>1</dim>
					<dim>512</dim>
					<dim>1</dim>
					<dim>1</dim>
				</port>
			</input>
			<output>
				<port id="1" precision="FP32" names="/backbone/body/layer2/layer2.2/bn3/Sub_output_0">
					<dim>1</dim>
					<dim>512</dim>
					<dim>1</dim>
					<dim>1</dim>
				</port>
			</output>
		</layer>
		<layer id="265" name="/backbone/body/layer2/layer2.2/bn3/Add_1" type="Add" version="opset1">
			<data auto_broadcast="numpy" />
			<input>
				<port id="0" precision="FP32">
					<dim>1</dim>
					<dim>512</dim>
					<dim>68</dim>
					<dim>168</dim>
				</port>
				<port id="1" precision="FP32">
					<dim>1</dim>
					<dim>512</dim>
					<dim>1</dim>
					<dim>1</dim>
				</port>
			</input>
			<output>
				<port id="2" precision="FP32" names="/backbone/body/layer2/layer2.2/bn3/Add_1_output_0">
					<dim>1</dim>
					<dim>512</dim>
					<dim>68</dim>
					<dim>168</dim>
				</port>
			</output>
		</layer>
		<layer id="266" name="/backbone/body/layer2/layer2.2/Add" type="Add" version="opset1">
			<data auto_broadcast="numpy" />
			<input>
				<port id="0" precision="FP32">
					<dim>1</dim>
					<dim>512</dim>
					<dim>68</dim>
					<dim>168</dim>
				</port>
				<port id="1" precision="FP32">
					<dim>1</dim>
					<dim>512</dim>
					<dim>68</dim>
					<dim>168</dim>
				</port>
			</input>
			<output>
				<port id="2" precision="FP32" names="/backbone/body/layer2/layer2.2/Add_output_0">
					<dim>1</dim>
					<dim>512</dim>
					<dim>68</dim>
					<dim>168</dim>
				</port>
			</output>
		</layer>
		<layer id="267" name="/backbone/body/layer2/layer2.2/relu_2/Relu" type="ReLU" version="opset1">
			<input>
				<port id="0" precision="FP32">
					<dim>1</dim>
					<dim>512</dim>
					<dim>68</dim>
					<dim>168</dim>
				</port>
			</input>
			<output>
				<port id="1" precision="FP32" names="/backbone/body/layer2/layer2.2/relu_2/Relu_output_0">
					<dim>1</dim>
					<dim>512</dim>
					<dim>68</dim>
					<dim>168</dim>
				</port>
			</output>
		</layer>
		<layer id="268" name="Multiply_102201_compressed" type="Const" version="opset1">
			<data element_type="f16" shape="128, 512, 1, 1" offset="2452862" size="131072" />
			<output>
				<port id="0" precision="FP16">
					<dim>128</dim>
					<dim>512</dim>
					<dim>1</dim>
					<dim>1</dim>
				</port>
			</output>
		</layer>
		<layer id="269" name="Multiply_102201" type="Convert" version="opset1">
			<data destination_type="f32" />
			<rt_info>
				<attribute name="decompression" version="0" />
			</rt_info>
			<input>
				<port id="0" precision="FP16">
					<dim>128</dim>
					<dim>512</dim>
					<dim>1</dim>
					<dim>1</dim>
				</port>
			</input>
			<output>
				<port id="1" precision="FP32">
					<dim>128</dim>
					<dim>512</dim>
					<dim>1</dim>
					<dim>1</dim>
				</port>
			</output>
		</layer>
		<layer id="270" name="/backbone/body/layer2/layer2.3/bn1/Mul_2" type="Convolution" version="opset1">
			<data strides="1, 1" dilations="1, 1" pads_begin="0, 0" pads_end="0, 0" auto_pad="explicit" />
			<input>
				<port id="0" precision="FP32">
					<dim>1</dim>
					<dim>512</dim>
					<dim>68</dim>
					<dim>168</dim>
				</port>
				<port id="1" precision="FP32">
					<dim>128</dim>
					<dim>512</dim>
					<dim>1</dim>
					<dim>1</dim>
				</port>
			</input>
			<output>
				<port id="2" precision="FP32" names="/backbone/body/layer2/layer2.3/bn1/Mul_2_output_0">
					<dim>1</dim>
					<dim>128</dim>
					<dim>68</dim>
					<dim>168</dim>
				</port>
			</output>
		</layer>
		<layer id="271" name="/backbone/body/layer2/layer2.3/bn1/Sub_compressed" type="Const" version="opset1">
			<data element_type="f16" shape="1, 128, 1, 1" offset="2583934" size="256" />
			<output>
				<port id="0" precision="FP16">
					<dim>1</dim>
					<dim>128</dim>
					<dim>1</dim>
					<dim>1</dim>
				</port>
			</output>
		</layer>
		<layer id="272" name="/backbone/body/layer2/layer2.3/bn1/Sub" type="Convert" version="opset1">
			<data destination_type="f32" />
			<rt_info>
				<attribute name="decompression" version="0" />
			</rt_info>
			<input>
				<port id="0" precision="FP16">
					<dim>1</dim>
					<dim>128</dim>
					<dim>1</dim>
					<dim>1</dim>
				</port>
			</input>
			<output>
				<port id="1" precision="FP32" names="/backbone/body/layer2/layer2.3/bn1/Sub_output_0">
					<dim>1</dim>
					<dim>128</dim>
					<dim>1</dim>
					<dim>1</dim>
				</port>
			</output>
		</layer>
		<layer id="273" name="/backbone/body/layer2/layer2.3/bn1/Add_1" type="Add" version="opset1">
			<data auto_broadcast="numpy" />
			<input>
				<port id="0" precision="FP32">
					<dim>1</dim>
					<dim>128</dim>
					<dim>68</dim>
					<dim>168</dim>
				</port>
				<port id="1" precision="FP32">
					<dim>1</dim>
					<dim>128</dim>
					<dim>1</dim>
					<dim>1</dim>
				</port>
			</input>
			<output>
				<port id="2" precision="FP32" names="/backbone/body/layer2/layer2.3/bn1/Add_1_output_0">
					<dim>1</dim>
					<dim>128</dim>
					<dim>68</dim>
					<dim>168</dim>
				</port>
			</output>
		</layer>
		<layer id="274" name="/backbone/body/layer2/layer2.3/relu/Relu" type="ReLU" version="opset1">
			<input>
				<port id="0" precision="FP32">
					<dim>1</dim>
					<dim>128</dim>
					<dim>68</dim>
					<dim>168</dim>
				</port>
			</input>
			<output>
				<port id="1" precision="FP32" names="/backbone/body/layer2/layer2.3/relu/Relu_output_0">
					<dim>1</dim>
					<dim>128</dim>
					<dim>68</dim>
					<dim>168</dim>
				</port>
			</output>
		</layer>
		<layer id="275" name="Multiply_102210_compressed" type="Const" version="opset1">
			<data element_type="f16" shape="128, 128, 3, 3" offset="2584190" size="294912" />
			<output>
				<port id="0" precision="FP16">
					<dim>128</dim>
					<dim>128</dim>
					<dim>3</dim>
					<dim>3</dim>
				</port>
			</output>
		</layer>
		<layer id="276" name="Multiply_102210" type="Convert" version="opset1">
			<data destination_type="f32" />
			<rt_info>
				<attribute name="decompression" version="0" />
			</rt_info>
			<input>
				<port id="0" precision="FP16">
					<dim>128</dim>
					<dim>128</dim>
					<dim>3</dim>
					<dim>3</dim>
				</port>
			</input>
			<output>
				<port id="1" precision="FP32">
					<dim>128</dim>
					<dim>128</dim>
					<dim>3</dim>
					<dim>3</dim>
				</port>
			</output>
		</layer>
		<layer id="277" name="/backbone/body/layer2/layer2.3/bn2/Mul_2" type="Convolution" version="opset1">
			<data strides="1, 1" dilations="1, 1" pads_begin="1, 1" pads_end="1, 1" auto_pad="explicit" />
			<input>
				<port id="0" precision="FP32">
					<dim>1</dim>
					<dim>128</dim>
					<dim>68</dim>
					<dim>168</dim>
				</port>
				<port id="1" precision="FP32">
					<dim>128</dim>
					<dim>128</dim>
					<dim>3</dim>
					<dim>3</dim>
				</port>
			</input>
			<output>
				<port id="2" precision="FP32" names="/backbone/body/layer2/layer2.3/bn2/Mul_2_output_0">
					<dim>1</dim>
					<dim>128</dim>
					<dim>68</dim>
					<dim>168</dim>
				</port>
			</output>
		</layer>
		<layer id="278" name="/backbone/body/layer2/layer2.3/bn2/Sub_compressed" type="Const" version="opset1">
			<data element_type="f16" shape="1, 128, 1, 1" offset="2879102" size="256" />
			<output>
				<port id="0" precision="FP16">
					<dim>1</dim>
					<dim>128</dim>
					<dim>1</dim>
					<dim>1</dim>
				</port>
			</output>
		</layer>
		<layer id="279" name="/backbone/body/layer2/layer2.3/bn2/Sub" type="Convert" version="opset1">
			<data destination_type="f32" />
			<rt_info>
				<attribute name="decompression" version="0" />
			</rt_info>
			<input>
				<port id="0" precision="FP16">
					<dim>1</dim>
					<dim>128</dim>
					<dim>1</dim>
					<dim>1</dim>
				</port>
			</input>
			<output>
				<port id="1" precision="FP32" names="/backbone/body/layer2/layer2.3/bn2/Sub_output_0">
					<dim>1</dim>
					<dim>128</dim>
					<dim>1</dim>
					<dim>1</dim>
				</port>
			</output>
		</layer>
		<layer id="280" name="/backbone/body/layer2/layer2.3/bn2/Add_1" type="Add" version="opset1">
			<data auto_broadcast="numpy" />
			<input>
				<port id="0" precision="FP32">
					<dim>1</dim>
					<dim>128</dim>
					<dim>68</dim>
					<dim>168</dim>
				</port>
				<port id="1" precision="FP32">
					<dim>1</dim>
					<dim>128</dim>
					<dim>1</dim>
					<dim>1</dim>
				</port>
			</input>
			<output>
				<port id="2" precision="FP32" names="/backbone/body/layer2/layer2.3/bn2/Add_1_output_0">
					<dim>1</dim>
					<dim>128</dim>
					<dim>68</dim>
					<dim>168</dim>
				</port>
			</output>
		</layer>
		<layer id="281" name="/backbone/body/layer2/layer2.3/relu_1/Relu" type="ReLU" version="opset1">
			<input>
				<port id="0" precision="FP32">
					<dim>1</dim>
					<dim>128</dim>
					<dim>68</dim>
					<dim>168</dim>
				</port>
			</input>
			<output>
				<port id="1" precision="FP32" names="/backbone/body/layer2/layer2.3/relu_1/Relu_output_0">
					<dim>1</dim>
					<dim>128</dim>
					<dim>68</dim>
					<dim>168</dim>
				</port>
			</output>
		</layer>
		<layer id="282" name="Multiply_102219_compressed" type="Const" version="opset1">
			<data element_type="f16" shape="512, 128, 1, 1" offset="2879358" size="131072" />
			<output>
				<port id="0" precision="FP16">
					<dim>512</dim>
					<dim>128</dim>
					<dim>1</dim>
					<dim>1</dim>
				</port>
			</output>
		</layer>
		<layer id="283" name="Multiply_102219" type="Convert" version="opset1">
			<data destination_type="f32" />
			<rt_info>
				<attribute name="decompression" version="0" />
			</rt_info>
			<input>
				<port id="0" precision="FP16">
					<dim>512</dim>
					<dim>128</dim>
					<dim>1</dim>
					<dim>1</dim>
				</port>
			</input>
			<output>
				<port id="1" precision="FP32">
					<dim>512</dim>
					<dim>128</dim>
					<dim>1</dim>
					<dim>1</dim>
				</port>
			</output>
		</layer>
		<layer id="284" name="/backbone/body/layer2/layer2.3/bn3/Mul_2" type="Convolution" version="opset1">
			<data strides="1, 1" dilations="1, 1" pads_begin="0, 0" pads_end="0, 0" auto_pad="explicit" />
			<input>
				<port id="0" precision="FP32">
					<dim>1</dim>
					<dim>128</dim>
					<dim>68</dim>
					<dim>168</dim>
				</port>
				<port id="1" precision="FP32">
					<dim>512</dim>
					<dim>128</dim>
					<dim>1</dim>
					<dim>1</dim>
				</port>
			</input>
			<output>
				<port id="2" precision="FP32" names="/backbone/body/layer2/layer2.3/bn3/Mul_2_output_0">
					<dim>1</dim>
					<dim>512</dim>
					<dim>68</dim>
					<dim>168</dim>
				</port>
			</output>
		</layer>
		<layer id="285" name="/backbone/body/layer2/layer2.3/bn3/Sub_compressed" type="Const" version="opset1">
			<data element_type="f16" shape="1, 512, 1, 1" offset="3010430" size="1024" />
			<output>
				<port id="0" precision="FP16">
					<dim>1</dim>
					<dim>512</dim>
					<dim>1</dim>
					<dim>1</dim>
				</port>
			</output>
		</layer>
		<layer id="286" name="/backbone/body/layer2/layer2.3/bn3/Sub" type="Convert" version="opset1">
			<data destination_type="f32" />
			<rt_info>
				<attribute name="decompression" version="0" />
			</rt_info>
			<input>
				<port id="0" precision="FP16">
					<dim>1</dim>
					<dim>512</dim>
					<dim>1</dim>
					<dim>1</dim>
				</port>
			</input>
			<output>
				<port id="1" precision="FP32" names="/backbone/body/layer2/layer2.3/bn3/Sub_output_0">
					<dim>1</dim>
					<dim>512</dim>
					<dim>1</dim>
					<dim>1</dim>
				</port>
			</output>
		</layer>
		<layer id="287" name="/backbone/body/layer2/layer2.3/bn3/Add_1" type="Add" version="opset1">
			<data auto_broadcast="numpy" />
			<input>
				<port id="0" precision="FP32">
					<dim>1</dim>
					<dim>512</dim>
					<dim>68</dim>
					<dim>168</dim>
				</port>
				<port id="1" precision="FP32">
					<dim>1</dim>
					<dim>512</dim>
					<dim>1</dim>
					<dim>1</dim>
				</port>
			</input>
			<output>
				<port id="2" precision="FP32" names="/backbone/body/layer2/layer2.3/bn3/Add_1_output_0">
					<dim>1</dim>
					<dim>512</dim>
					<dim>68</dim>
					<dim>168</dim>
				</port>
			</output>
		</layer>
		<layer id="288" name="/backbone/body/layer2/layer2.3/Add" type="Add" version="opset1">
			<data auto_broadcast="numpy" />
			<input>
				<port id="0" precision="FP32">
					<dim>1</dim>
					<dim>512</dim>
					<dim>68</dim>
					<dim>168</dim>
				</port>
				<port id="1" precision="FP32">
					<dim>1</dim>
					<dim>512</dim>
					<dim>68</dim>
					<dim>168</dim>
				</port>
			</input>
			<output>
				<port id="2" precision="FP32" names="/backbone/body/layer2/layer2.3/Add_output_0">
					<dim>1</dim>
					<dim>512</dim>
					<dim>68</dim>
					<dim>168</dim>
				</port>
			</output>
		</layer>
		<layer id="289" name="/backbone/body/layer2/layer2.3/relu_2/Relu" type="ReLU" version="opset1">
			<input>
				<port id="0" precision="FP32">
					<dim>1</dim>
					<dim>512</dim>
					<dim>68</dim>
					<dim>168</dim>
				</port>
			</input>
			<output>
				<port id="1" precision="FP32" names="/backbone/body/layer2/layer2.3/relu_2/Relu_output_0">
					<dim>1</dim>
					<dim>512</dim>
					<dim>68</dim>
					<dim>168</dim>
				</port>
			</output>
		</layer>
		<layer id="290" name="backbone.fpn.inner_blocks.1.0.weight_compressed" type="Const" version="opset1">
			<data element_type="f16" shape="256, 512, 1, 1" offset="3011454" size="262144" />
			<output>
				<port id="0" precision="FP16">
					<dim>256</dim>
					<dim>512</dim>
					<dim>1</dim>
					<dim>1</dim>
				</port>
			</output>
		</layer>
		<layer id="291" name="backbone.fpn.inner_blocks.1.0.weight" type="Convert" version="opset1">
			<data destination_type="f32" />
			<rt_info>
				<attribute name="decompression" version="0" />
			</rt_info>
			<input>
				<port id="0" precision="FP16">
					<dim>256</dim>
					<dim>512</dim>
					<dim>1</dim>
					<dim>1</dim>
				</port>
			</input>
			<output>
				<port id="1" precision="FP32" names="backbone.fpn.inner_blocks.1.0.weight">
					<dim>256</dim>
					<dim>512</dim>
					<dim>1</dim>
					<dim>1</dim>
				</port>
			</output>
		</layer>
		<layer id="292" name="/backbone/fpn/inner_blocks.1/inner_blocks.1.0/Conv/WithoutBiases" type="Convolution" version="opset1">
			<data strides="1, 1" dilations="1, 1" pads_begin="0, 0" pads_end="0, 0" auto_pad="explicit" />
			<input>
				<port id="0" precision="FP32">
					<dim>1</dim>
					<dim>512</dim>
					<dim>68</dim>
					<dim>168</dim>
				</port>
				<port id="1" precision="FP32">
					<dim>256</dim>
					<dim>512</dim>
					<dim>1</dim>
					<dim>1</dim>
				</port>
			</input>
			<output>
				<port id="2" precision="FP32">
					<dim>1</dim>
					<dim>256</dim>
					<dim>68</dim>
					<dim>168</dim>
				</port>
			</output>
		</layer>
		<layer id="293" name="Reshape_3723_compressed" type="Const" version="opset1">
			<data element_type="f16" shape="1, 256, 1, 1" offset="3273598" size="512" />
			<output>
				<port id="0" precision="FP16">
					<dim>1</dim>
					<dim>256</dim>
					<dim>1</dim>
					<dim>1</dim>
				</port>
			</output>
		</layer>
		<layer id="294" name="Reshape_3723" type="Convert" version="opset1">
			<data destination_type="f32" />
			<rt_info>
				<attribute name="decompression" version="0" />
			</rt_info>
			<input>
				<port id="0" precision="FP16">
					<dim>1</dim>
					<dim>256</dim>
					<dim>1</dim>
					<dim>1</dim>
				</port>
			</input>
			<output>
				<port id="1" precision="FP32">
					<dim>1</dim>
					<dim>256</dim>
					<dim>1</dim>
					<dim>1</dim>
				</port>
			</output>
		</layer>
		<layer id="295" name="/backbone/fpn/inner_blocks.1/inner_blocks.1.0/Conv" type="Add" version="opset1">
			<data auto_broadcast="numpy" />
			<input>
				<port id="0" precision="FP32">
					<dim>1</dim>
					<dim>256</dim>
					<dim>68</dim>
					<dim>168</dim>
				</port>
				<port id="1" precision="FP32">
					<dim>1</dim>
					<dim>256</dim>
					<dim>1</dim>
					<dim>1</dim>
				</port>
			</input>
			<output>
				<port id="2" precision="FP32" names="/backbone/fpn/inner_blocks.1/inner_blocks.1.0/Conv_output_0">
					<dim>1</dim>
					<dim>256</dim>
					<dim>68</dim>
					<dim>168</dim>
				</port>
			</output>
		</layer>
		<layer id="296" name="Multiply_102228_compressed" type="Const" version="opset1">
			<data element_type="f16" shape="256, 512, 1, 1" offset="3274110" size="262144" />
			<output>
				<port id="0" precision="FP16">
					<dim>256</dim>
					<dim>512</dim>
					<dim>1</dim>
					<dim>1</dim>
				</port>
			</output>
		</layer>
		<layer id="297" name="Multiply_102228" type="Convert" version="opset1">
			<data destination_type="f32" />
			<rt_info>
				<attribute name="decompression" version="0" />
			</rt_info>
			<input>
				<port id="0" precision="FP16">
					<dim>256</dim>
					<dim>512</dim>
					<dim>1</dim>
					<dim>1</dim>
				</port>
			</input>
			<output>
				<port id="1" precision="FP32">
					<dim>256</dim>
					<dim>512</dim>
					<dim>1</dim>
					<dim>1</dim>
				</port>
			</output>
		</layer>
		<layer id="298" name="/backbone/body/layer3/layer3.0/bn1/Mul_2" type="Convolution" version="opset1">
			<data strides="1, 1" dilations="1, 1" pads_begin="0, 0" pads_end="0, 0" auto_pad="explicit" />
			<input>
				<port id="0" precision="FP32">
					<dim>1</dim>
					<dim>512</dim>
					<dim>68</dim>
					<dim>168</dim>
				</port>
				<port id="1" precision="FP32">
					<dim>256</dim>
					<dim>512</dim>
					<dim>1</dim>
					<dim>1</dim>
				</port>
			</input>
			<output>
				<port id="2" precision="FP32" names="/backbone/body/layer3/layer3.0/bn1/Mul_2_output_0">
					<dim>1</dim>
					<dim>256</dim>
					<dim>68</dim>
					<dim>168</dim>
				</port>
			</output>
		</layer>
		<layer id="299" name="/backbone/body/layer3/layer3.0/bn1/Sub_compressed" type="Const" version="opset1">
			<data element_type="f16" shape="1, 256, 1, 1" offset="3536254" size="512" />
			<output>
				<port id="0" precision="FP16">
					<dim>1</dim>
					<dim>256</dim>
					<dim>1</dim>
					<dim>1</dim>
				</port>
			</output>
		</layer>
		<layer id="300" name="/backbone/body/layer3/layer3.0/bn1/Sub" type="Convert" version="opset1">
			<data destination_type="f32" />
			<rt_info>
				<attribute name="decompression" version="0" />
			</rt_info>
			<input>
				<port id="0" precision="FP16">
					<dim>1</dim>
					<dim>256</dim>
					<dim>1</dim>
					<dim>1</dim>
				</port>
			</input>
			<output>
				<port id="1" precision="FP32" names="/backbone/body/layer3/layer3.0/bn1/Sub_output_0">
					<dim>1</dim>
					<dim>256</dim>
					<dim>1</dim>
					<dim>1</dim>
				</port>
			</output>
		</layer>
		<layer id="301" name="/backbone/body/layer3/layer3.0/bn1/Add_1" type="Add" version="opset1">
			<data auto_broadcast="numpy" />
			<input>
				<port id="0" precision="FP32">
					<dim>1</dim>
					<dim>256</dim>
					<dim>68</dim>
					<dim>168</dim>
				</port>
				<port id="1" precision="FP32">
					<dim>1</dim>
					<dim>256</dim>
					<dim>1</dim>
					<dim>1</dim>
				</port>
			</input>
			<output>
				<port id="2" precision="FP32" names="/backbone/body/layer3/layer3.0/bn1/Add_1_output_0">
					<dim>1</dim>
					<dim>256</dim>
					<dim>68</dim>
					<dim>168</dim>
				</port>
			</output>
		</layer>
		<layer id="302" name="/backbone/body/layer3/layer3.0/relu/Relu" type="ReLU" version="opset1">
			<input>
				<port id="0" precision="FP32">
					<dim>1</dim>
					<dim>256</dim>
					<dim>68</dim>
					<dim>168</dim>
				</port>
			</input>
			<output>
				<port id="1" precision="FP32" names="/backbone/body/layer3/layer3.0/relu/Relu_output_0">
					<dim>1</dim>
					<dim>256</dim>
					<dim>68</dim>
					<dim>168</dim>
				</port>
			</output>
		</layer>
		<layer id="303" name="Multiply_102237_compressed" type="Const" version="opset1">
			<data element_type="f16" shape="256, 256, 3, 3" offset="3536766" size="1179648" />
			<output>
				<port id="0" precision="FP16">
					<dim>256</dim>
					<dim>256</dim>
					<dim>3</dim>
					<dim>3</dim>
				</port>
			</output>
		</layer>
		<layer id="304" name="Multiply_102237" type="Convert" version="opset1">
			<data destination_type="f32" />
			<rt_info>
				<attribute name="decompression" version="0" />
			</rt_info>
			<input>
				<port id="0" precision="FP16">
					<dim>256</dim>
					<dim>256</dim>
					<dim>3</dim>
					<dim>3</dim>
				</port>
			</input>
			<output>
				<port id="1" precision="FP32">
					<dim>256</dim>
					<dim>256</dim>
					<dim>3</dim>
					<dim>3</dim>
				</port>
			</output>
		</layer>
		<layer id="305" name="/backbone/body/layer3/layer3.0/bn2/Mul_2" type="Convolution" version="opset1">
			<data strides="2, 2" dilations="1, 1" pads_begin="1, 1" pads_end="1, 1" auto_pad="explicit" />
			<input>
				<port id="0" precision="FP32">
					<dim>1</dim>
					<dim>256</dim>
					<dim>68</dim>
					<dim>168</dim>
				</port>
				<port id="1" precision="FP32">
					<dim>256</dim>
					<dim>256</dim>
					<dim>3</dim>
					<dim>3</dim>
				</port>
			</input>
			<output>
				<port id="2" precision="FP32" names="/backbone/body/layer3/layer3.0/bn2/Mul_2_output_0">
					<dim>1</dim>
					<dim>256</dim>
					<dim>34</dim>
					<dim>84</dim>
				</port>
			</output>
		</layer>
		<layer id="306" name="/backbone/body/layer3/layer3.0/bn2/Sub_compressed" type="Const" version="opset1">
			<data element_type="f16" shape="1, 256, 1, 1" offset="4716414" size="512" />
			<output>
				<port id="0" precision="FP16">
					<dim>1</dim>
					<dim>256</dim>
					<dim>1</dim>
					<dim>1</dim>
				</port>
			</output>
		</layer>
		<layer id="307" name="/backbone/body/layer3/layer3.0/bn2/Sub" type="Convert" version="opset1">
			<data destination_type="f32" />
			<rt_info>
				<attribute name="decompression" version="0" />
			</rt_info>
			<input>
				<port id="0" precision="FP16">
					<dim>1</dim>
					<dim>256</dim>
					<dim>1</dim>
					<dim>1</dim>
				</port>
			</input>
			<output>
				<port id="1" precision="FP32" names="/backbone/body/layer3/layer3.0/bn2/Sub_output_0">
					<dim>1</dim>
					<dim>256</dim>
					<dim>1</dim>
					<dim>1</dim>
				</port>
			</output>
		</layer>
		<layer id="308" name="/backbone/body/layer3/layer3.0/bn2/Add_1" type="Add" version="opset1">
			<data auto_broadcast="numpy" />
			<input>
				<port id="0" precision="FP32">
					<dim>1</dim>
					<dim>256</dim>
					<dim>34</dim>
					<dim>84</dim>
				</port>
				<port id="1" precision="FP32">
					<dim>1</dim>
					<dim>256</dim>
					<dim>1</dim>
					<dim>1</dim>
				</port>
			</input>
			<output>
				<port id="2" precision="FP32" names="/backbone/body/layer3/layer3.0/bn2/Add_1_output_0">
					<dim>1</dim>
					<dim>256</dim>
					<dim>34</dim>
					<dim>84</dim>
				</port>
			</output>
		</layer>
		<layer id="309" name="/backbone/body/layer3/layer3.0/relu_1/Relu" type="ReLU" version="opset1">
			<input>
				<port id="0" precision="FP32">
					<dim>1</dim>
					<dim>256</dim>
					<dim>34</dim>
					<dim>84</dim>
				</port>
			</input>
			<output>
				<port id="1" precision="FP32" names="/backbone/body/layer3/layer3.0/relu_1/Relu_output_0">
					<dim>1</dim>
					<dim>256</dim>
					<dim>34</dim>
					<dim>84</dim>
				</port>
			</output>
		</layer>
		<layer id="310" name="Multiply_102246_compressed" type="Const" version="opset1">
			<data element_type="f16" shape="1024, 256, 1, 1" offset="4716926" size="524288" />
			<output>
				<port id="0" precision="FP16">
					<dim>1024</dim>
					<dim>256</dim>
					<dim>1</dim>
					<dim>1</dim>
				</port>
			</output>
		</layer>
		<layer id="311" name="Multiply_102246" type="Convert" version="opset1">
			<data destination_type="f32" />
			<rt_info>
				<attribute name="decompression" version="0" />
			</rt_info>
			<input>
				<port id="0" precision="FP16">
					<dim>1024</dim>
					<dim>256</dim>
					<dim>1</dim>
					<dim>1</dim>
				</port>
			</input>
			<output>
				<port id="1" precision="FP32">
					<dim>1024</dim>
					<dim>256</dim>
					<dim>1</dim>
					<dim>1</dim>
				</port>
			</output>
		</layer>
		<layer id="312" name="/backbone/body/layer3/layer3.0/bn3/Mul_2" type="Convolution" version="opset1">
			<data strides="1, 1" dilations="1, 1" pads_begin="0, 0" pads_end="0, 0" auto_pad="explicit" />
			<input>
				<port id="0" precision="FP32">
					<dim>1</dim>
					<dim>256</dim>
					<dim>34</dim>
					<dim>84</dim>
				</port>
				<port id="1" precision="FP32">
					<dim>1024</dim>
					<dim>256</dim>
					<dim>1</dim>
					<dim>1</dim>
				</port>
			</input>
			<output>
				<port id="2" precision="FP32" names="/backbone/body/layer3/layer3.0/bn3/Mul_2_output_0">
					<dim>1</dim>
					<dim>1024</dim>
					<dim>34</dim>
					<dim>84</dim>
				</port>
			</output>
		</layer>
		<layer id="313" name="/backbone/body/layer3/layer3.0/bn3/Sub_compressed" type="Const" version="opset1">
			<data element_type="f16" shape="1, 1024, 1, 1" offset="5241214" size="2048" />
			<output>
				<port id="0" precision="FP16">
					<dim>1</dim>
					<dim>1024</dim>
					<dim>1</dim>
					<dim>1</dim>
				</port>
			</output>
		</layer>
		<layer id="314" name="/backbone/body/layer3/layer3.0/bn3/Sub" type="Convert" version="opset1">
			<data destination_type="f32" />
			<rt_info>
				<attribute name="decompression" version="0" />
			</rt_info>
			<input>
				<port id="0" precision="FP16">
					<dim>1</dim>
					<dim>1024</dim>
					<dim>1</dim>
					<dim>1</dim>
				</port>
			</input>
			<output>
				<port id="1" precision="FP32" names="/backbone/body/layer3/layer3.0/bn3/Sub_output_0">
					<dim>1</dim>
					<dim>1024</dim>
					<dim>1</dim>
					<dim>1</dim>
				</port>
			</output>
		</layer>
		<layer id="315" name="/backbone/body/layer3/layer3.0/bn3/Add_1" type="Add" version="opset1">
			<data auto_broadcast="numpy" />
			<input>
				<port id="0" precision="FP32">
					<dim>1</dim>
					<dim>1024</dim>
					<dim>34</dim>
					<dim>84</dim>
				</port>
				<port id="1" precision="FP32">
					<dim>1</dim>
					<dim>1024</dim>
					<dim>1</dim>
					<dim>1</dim>
				</port>
			</input>
			<output>
				<port id="2" precision="FP32" names="/backbone/body/layer3/layer3.0/bn3/Add_1_output_0">
					<dim>1</dim>
					<dim>1024</dim>
					<dim>34</dim>
					<dim>84</dim>
				</port>
			</output>
		</layer>
		<layer id="316" name="Multiply_102255_compressed" type="Const" version="opset1">
			<data element_type="f16" shape="1024, 512, 1, 1" offset="5243262" size="1048576" />
			<output>
				<port id="0" precision="FP16">
					<dim>1024</dim>
					<dim>512</dim>
					<dim>1</dim>
					<dim>1</dim>
				</port>
			</output>
		</layer>
		<layer id="317" name="Multiply_102255" type="Convert" version="opset1">
			<data destination_type="f32" />
			<rt_info>
				<attribute name="decompression" version="0" />
			</rt_info>
			<input>
				<port id="0" precision="FP16">
					<dim>1024</dim>
					<dim>512</dim>
					<dim>1</dim>
					<dim>1</dim>
				</port>
			</input>
			<output>
				<port id="1" precision="FP32">
					<dim>1024</dim>
					<dim>512</dim>
					<dim>1</dim>
					<dim>1</dim>
				</port>
			</output>
		</layer>
		<layer id="318" name="/backbone/body/layer3/layer3.0/downsample/downsample.1/Mul_2" type="Convolution" version="opset1">
			<data strides="2, 2" dilations="1, 1" pads_begin="0, 0" pads_end="0, 0" auto_pad="explicit" />
			<input>
				<port id="0" precision="FP32">
					<dim>1</dim>
					<dim>512</dim>
					<dim>68</dim>
					<dim>168</dim>
				</port>
				<port id="1" precision="FP32">
					<dim>1024</dim>
					<dim>512</dim>
					<dim>1</dim>
					<dim>1</dim>
				</port>
			</input>
			<output>
				<port id="2" precision="FP32" names="/backbone/body/layer3/layer3.0/downsample/downsample.1/Mul_2_output_0">
					<dim>1</dim>
					<dim>1024</dim>
					<dim>34</dim>
					<dim>84</dim>
				</port>
			</output>
		</layer>
		<layer id="319" name="/backbone/body/layer3/layer3.0/downsample/downsample.1/Sub_compressed" type="Const" version="opset1">
			<data element_type="f16" shape="1, 1024, 1, 1" offset="6291838" size="2048" />
			<output>
				<port id="0" precision="FP16">
					<dim>1</dim>
					<dim>1024</dim>
					<dim>1</dim>
					<dim>1</dim>
				</port>
			</output>
		</layer>
		<layer id="320" name="/backbone/body/layer3/layer3.0/downsample/downsample.1/Sub" type="Convert" version="opset1">
			<data destination_type="f32" />
			<rt_info>
				<attribute name="decompression" version="0" />
			</rt_info>
			<input>
				<port id="0" precision="FP16">
					<dim>1</dim>
					<dim>1024</dim>
					<dim>1</dim>
					<dim>1</dim>
				</port>
			</input>
			<output>
				<port id="1" precision="FP32" names="/backbone/body/layer3/layer3.0/downsample/downsample.1/Sub_output_0">
					<dim>1</dim>
					<dim>1024</dim>
					<dim>1</dim>
					<dim>1</dim>
				</port>
			</output>
		</layer>
		<layer id="321" name="/backbone/body/layer3/layer3.0/downsample/downsample.1/Add_1" type="Add" version="opset1">
			<data auto_broadcast="numpy" />
			<input>
				<port id="0" precision="FP32">
					<dim>1</dim>
					<dim>1024</dim>
					<dim>34</dim>
					<dim>84</dim>
				</port>
				<port id="1" precision="FP32">
					<dim>1</dim>
					<dim>1024</dim>
					<dim>1</dim>
					<dim>1</dim>
				</port>
			</input>
			<output>
				<port id="2" precision="FP32" names="/backbone/body/layer3/layer3.0/downsample/downsample.1/Add_1_output_0">
					<dim>1</dim>
					<dim>1024</dim>
					<dim>34</dim>
					<dim>84</dim>
				</port>
			</output>
		</layer>
		<layer id="322" name="/backbone/body/layer3/layer3.0/Add" type="Add" version="opset1">
			<data auto_broadcast="numpy" />
			<input>
				<port id="0" precision="FP32">
					<dim>1</dim>
					<dim>1024</dim>
					<dim>34</dim>
					<dim>84</dim>
				</port>
				<port id="1" precision="FP32">
					<dim>1</dim>
					<dim>1024</dim>
					<dim>34</dim>
					<dim>84</dim>
				</port>
			</input>
			<output>
				<port id="2" precision="FP32" names="/backbone/body/layer3/layer3.0/Add_output_0">
					<dim>1</dim>
					<dim>1024</dim>
					<dim>34</dim>
					<dim>84</dim>
				</port>
			</output>
		</layer>
		<layer id="323" name="/backbone/body/layer3/layer3.0/relu_2/Relu" type="ReLU" version="opset1">
			<input>
				<port id="0" precision="FP32">
					<dim>1</dim>
					<dim>1024</dim>
					<dim>34</dim>
					<dim>84</dim>
				</port>
			</input>
			<output>
				<port id="1" precision="FP32" names="/backbone/body/layer3/layer3.0/relu_2/Relu_output_0">
					<dim>1</dim>
					<dim>1024</dim>
					<dim>34</dim>
					<dim>84</dim>
				</port>
			</output>
		</layer>
		<layer id="324" name="Multiply_102264_compressed" type="Const" version="opset1">
			<data element_type="f16" shape="256, 1024, 1, 1" offset="6293886" size="524288" />
			<output>
				<port id="0" precision="FP16">
					<dim>256</dim>
					<dim>1024</dim>
					<dim>1</dim>
					<dim>1</dim>
				</port>
			</output>
		</layer>
		<layer id="325" name="Multiply_102264" type="Convert" version="opset1">
			<data destination_type="f32" />
			<rt_info>
				<attribute name="decompression" version="0" />
			</rt_info>
			<input>
				<port id="0" precision="FP16">
					<dim>256</dim>
					<dim>1024</dim>
					<dim>1</dim>
					<dim>1</dim>
				</port>
			</input>
			<output>
				<port id="1" precision="FP32">
					<dim>256</dim>
					<dim>1024</dim>
					<dim>1</dim>
					<dim>1</dim>
				</port>
			</output>
		</layer>
		<layer id="326" name="/backbone/body/layer3/layer3.1/bn1/Mul_2" type="Convolution" version="opset1">
			<data strides="1, 1" dilations="1, 1" pads_begin="0, 0" pads_end="0, 0" auto_pad="explicit" />
			<input>
				<port id="0" precision="FP32">
					<dim>1</dim>
					<dim>1024</dim>
					<dim>34</dim>
					<dim>84</dim>
				</port>
				<port id="1" precision="FP32">
					<dim>256</dim>
					<dim>1024</dim>
					<dim>1</dim>
					<dim>1</dim>
				</port>
			</input>
			<output>
				<port id="2" precision="FP32" names="/backbone/body/layer3/layer3.1/bn1/Mul_2_output_0">
					<dim>1</dim>
					<dim>256</dim>
					<dim>34</dim>
					<dim>84</dim>
				</port>
			</output>
		</layer>
		<layer id="327" name="/backbone/body/layer3/layer3.1/bn1/Sub_compressed" type="Const" version="opset1">
			<data element_type="f16" shape="1, 256, 1, 1" offset="6818174" size="512" />
			<output>
				<port id="0" precision="FP16">
					<dim>1</dim>
					<dim>256</dim>
					<dim>1</dim>
					<dim>1</dim>
				</port>
			</output>
		</layer>
		<layer id="328" name="/backbone/body/layer3/layer3.1/bn1/Sub" type="Convert" version="opset1">
			<data destination_type="f32" />
			<rt_info>
				<attribute name="decompression" version="0" />
			</rt_info>
			<input>
				<port id="0" precision="FP16">
					<dim>1</dim>
					<dim>256</dim>
					<dim>1</dim>
					<dim>1</dim>
				</port>
			</input>
			<output>
				<port id="1" precision="FP32" names="/backbone/body/layer3/layer3.1/bn1/Sub_output_0">
					<dim>1</dim>
					<dim>256</dim>
					<dim>1</dim>
					<dim>1</dim>
				</port>
			</output>
		</layer>
		<layer id="329" name="/backbone/body/layer3/layer3.1/bn1/Add_1" type="Add" version="opset1">
			<data auto_broadcast="numpy" />
			<input>
				<port id="0" precision="FP32">
					<dim>1</dim>
					<dim>256</dim>
					<dim>34</dim>
					<dim>84</dim>
				</port>
				<port id="1" precision="FP32">
					<dim>1</dim>
					<dim>256</dim>
					<dim>1</dim>
					<dim>1</dim>
				</port>
			</input>
			<output>
				<port id="2" precision="FP32" names="/backbone/body/layer3/layer3.1/bn1/Add_1_output_0">
					<dim>1</dim>
					<dim>256</dim>
					<dim>34</dim>
					<dim>84</dim>
				</port>
			</output>
		</layer>
		<layer id="330" name="/backbone/body/layer3/layer3.1/relu/Relu" type="ReLU" version="opset1">
			<input>
				<port id="0" precision="FP32">
					<dim>1</dim>
					<dim>256</dim>
					<dim>34</dim>
					<dim>84</dim>
				</port>
			</input>
			<output>
				<port id="1" precision="FP32" names="/backbone/body/layer3/layer3.1/relu/Relu_output_0">
					<dim>1</dim>
					<dim>256</dim>
					<dim>34</dim>
					<dim>84</dim>
				</port>
			</output>
		</layer>
		<layer id="331" name="Multiply_102273_compressed" type="Const" version="opset1">
			<data element_type="f16" shape="256, 256, 3, 3" offset="6818686" size="1179648" />
			<output>
				<port id="0" precision="FP16">
					<dim>256</dim>
					<dim>256</dim>
					<dim>3</dim>
					<dim>3</dim>
				</port>
			</output>
		</layer>
		<layer id="332" name="Multiply_102273" type="Convert" version="opset1">
			<data destination_type="f32" />
			<rt_info>
				<attribute name="decompression" version="0" />
			</rt_info>
			<input>
				<port id="0" precision="FP16">
					<dim>256</dim>
					<dim>256</dim>
					<dim>3</dim>
					<dim>3</dim>
				</port>
			</input>
			<output>
				<port id="1" precision="FP32">
					<dim>256</dim>
					<dim>256</dim>
					<dim>3</dim>
					<dim>3</dim>
				</port>
			</output>
		</layer>
		<layer id="333" name="/backbone/body/layer3/layer3.1/bn2/Mul_2" type="Convolution" version="opset1">
			<data strides="1, 1" dilations="1, 1" pads_begin="1, 1" pads_end="1, 1" auto_pad="explicit" />
			<input>
				<port id="0" precision="FP32">
					<dim>1</dim>
					<dim>256</dim>
					<dim>34</dim>
					<dim>84</dim>
				</port>
				<port id="1" precision="FP32">
					<dim>256</dim>
					<dim>256</dim>
					<dim>3</dim>
					<dim>3</dim>
				</port>
			</input>
			<output>
				<port id="2" precision="FP32" names="/backbone/body/layer3/layer3.1/bn2/Mul_2_output_0">
					<dim>1</dim>
…
		<edge from-layer="1544" from-port="2" to-layer="1546" to-port="0" />
		<edge from-layer="1544" from-port="2" to-layer="1555" to-port="0" />
		<edge from-layer="1544" from-port="2" to-layer="1557" to-port="0" />
		<edge from-layer="1545" from-port="0" to-layer="1546" to-port="2" />
		<edge from-layer="1546" from-port="3" to-layer="1549" to-port="0" />
		<edge from-layer="1547" from-port="0" to-layer="1548" to-port="2" />
		<edge from-layer="1548" from-port="3" to-layer="1549" to-port="1" />
		<edge from-layer="1549" from-port="2" to-layer="1552" to-port="0" />
		<edge from-layer="1550" from-port="0" to-layer="1551" to-port="0" />
		<edge from-layer="1551" from-port="1" to-layer="1552" to-port="1" />
		<edge from-layer="1552" from-port="2" to-layer="1553" to-port="0" />
		<edge from-layer="1553" from-port="1" to-layer="1563" to-port="0" />
		<edge from-layer="1554" from-port="0" to-layer="1555" to-port="2" />
		<edge from-layer="1555" from-port="3" to-layer="1558" to-port="0" />
		<edge from-layer="1556" from-port="0" to-layer="1557" to-port="2" />
		<edge from-layer="1557" from-port="3" to-layer="1558" to-port="1" />
		<edge from-layer="1558" from-port="2" to-layer="1561" to-port="0" />
		<edge from-layer="1559" from-port="0" to-layer="1560" to-port="0" />
		<edge from-layer="1560" from-port="1" to-layer="1561" to-port="1" />
		<edge from-layer="1561" from-port="2" to-layer="1562" to-port="0" />
		<edge from-layer="1562" from-port="1" to-layer="1563" to-port="1" />
		<edge from-layer="1563" from-port="2" to-layer="1564" to-port="0" />
		<edge from-layer="1564" from-port="1" to-layer="1566" to-port="0" />
		<edge from-layer="1565" from-port="0" to-layer="1566" to-port="1" />
		<edge from-layer="1566" from-port="2" to-layer="1569" to-port="0" />
		<edge from-layer="1567" from-port="0" to-layer="1569" to-port="1" />
		<edge from-layer="1568" from-port="0" to-layer="1569" to-port="2" />
		<edge from-layer="1569" from-port="3" to-layer="1571" to-port="0" />
		<edge from-layer="1570" from-port="0" to-layer="1571" to-port="1" />
		<edge from-layer="1571" from-port="2" to-layer="1573" to-port="1" />
		<edge from-layer="1571" from-port="2" to-layer="1673" to-port="1" />
		<edge from-layer="1571" from-port="2" to-layer="1602" to-port="1" />
		<edge from-layer="1572" from-port="0" to-layer="1573" to-port="2" />
		<edge from-layer="1573" from-port="3" to-layer="1616" to-port="0" />
		<edge from-layer="1574" from-port="1" to-layer="1586" to-port="0" />
		<edge from-layer="1574" from-port="1" to-layer="1578" to-port="0" />
		<edge from-layer="1574" from-port="1" to-layer="1645" to-port="1" />
		<edge from-layer="1575" from-port="0" to-layer="1578" to-port="1" />
		<edge from-layer="1576" from-port="0" to-layer="1578" to-port="2" />
		<edge from-layer="1577" from-port="0" to-layer="1578" to-port="3" />
		<edge from-layer="1578" from-port="4" to-layer="1580" to-port="0" />
		<edge from-layer="1579" from-port="0" to-layer="1580" to-port="1" />
		<edge from-layer="1580" from-port="2" to-layer="1582" to-port="0" />
		<edge from-layer="1581" from-port="0" to-layer="1582" to-port="1" />
		<edge from-layer="1582" from-port="2" to-layer="1583" to-port="1" />
		<edge from-layer="1583" from-port="2" to-layer="1590" to-port="0" />
		<edge from-layer="1584" from-port="0" to-layer="1586" to-port="1" />
		<edge from-layer="1585" from-port="0" to-layer="1586" to-port="2" />
		<edge from-layer="1586" from-port="3" to-layer="1587" to-port="1" />
		<edge from-layer="1587" from-port="2" to-layer="1588" to-port="1" />
		<edge from-layer="1588" from-port="2" to-layer="1590" to-port="1" />
		<edge from-layer="1588" from-port="2" to-layer="1593" to-port="0" />
		<edge from-layer="1589" from-port="0" to-layer="1590" to-port="2" />
		<edge from-layer="1590" from-port="3" to-layer="1592" to-port="0" />
		<edge from-layer="1591" from-port="0" to-layer="1592" to-port="1" />
		<edge from-layer="1592" from-port="2" to-layer="1594" to-port="0" />
		<edge from-layer="1593" from-port="1" to-layer="1594" to-port="1" />
		<edge from-layer="1594" from-port="2" to-layer="1595" to-port="0" />
		<edge from-layer="1595" from-port="1" to-layer="1598" to-port="0" />
		<edge from-layer="1596" from-port="0" to-layer="1598" to-port="1" />
		<edge from-layer="1597" from-port="0" to-layer="1598" to-port="2" />
		<edge from-layer="1598" from-port="3" to-layer="1600" to-port="0" />
		<edge from-layer="1599" from-port="0" to-layer="1600" to-port="1" />
		<edge from-layer="1600" from-port="2" to-layer="1602" to-port="0" />
		<edge from-layer="1601" from-port="0" to-layer="1602" to-port="2" />
		<edge from-layer="1602" from-port="3" to-layer="1677" to-port="0" />
		<edge from-layer="1602" from-port="3" to-layer="1605" to-port="0" />
		<edge from-layer="1603" from-port="0" to-layer="1604" to-port="0" />
		<edge from-layer="1604" from-port="1" to-layer="1605" to-port="1" />
		<edge from-layer="1605" from-port="2" to-layer="1606" to-port="0" />
		<edge from-layer="1606" from-port="1" to-layer="1607" to-port="0" />
		<edge from-layer="1607" from-port="1" to-layer="1609" to-port="0" />
		<edge from-layer="1608" from-port="0" to-layer="1609" to-port="1" />
		<edge from-layer="1609" from-port="2" to-layer="1612" to-port="0" />
		<edge from-layer="1610" from-port="0" to-layer="1612" to-port="1" />
		<edge from-layer="1611" from-port="0" to-layer="1612" to-port="2" />
		<edge from-layer="1612" from-port="3" to-layer="1614" to-port="0" />
		<edge from-layer="1613" from-port="0" to-layer="1614" to-port="1" />
		<edge from-layer="1614" from-port="2" to-layer="1675" to-port="1" />
		<edge from-layer="1614" from-port="2" to-layer="1677" to-port="1" />
		<edge from-layer="1614" from-port="2" to-layer="1616" to-port="1" />
		<edge from-layer="1615" from-port="0" to-layer="1616" to-port="2" />
		<edge from-layer="1616" from-port="3" to-layer="1678" to-port="1" />
		<edge from-layer="1616" from-port="3" to-layer="1684" to-port="0" />
		<edge from-layer="1616" from-port="3" to-layer="1617" to-port="0" />
		<edge from-layer="1617" from-port="1" to-layer="1619" to-port="0" />
		<edge from-layer="1618" from-port="0" to-layer="1619" to-port="1" />
		<edge from-layer="1619" from-port="2" to-layer="1621" to-port="0" />
		<edge from-layer="1620" from-port="0" to-layer="1621" to-port="1" />
		<edge from-layer="1621" from-port="2" to-layer="1678" to-port="0" />
		<edge from-layer="1622" from-port="0" to-layer="1625" to-port="0" />
		<edge from-layer="1623" from-port="0" to-layer="1624" to-port="1" />
		<edge from-layer="1624" from-port="2" to-layer="1625" to-port="1" />
		<edge from-layer="1625" from-port="2" to-layer="1642" to-port="0" />
		<edge from-layer="1626" from-port="0" to-layer="1629" to-port="0" />
		<edge from-layer="1627" from-port="0" to-layer="1628" to-port="1" />
		<edge from-layer="1628" from-port="2" to-layer="1629" to-port="1" />
		<edge from-layer="1629" from-port="2" to-layer="1642" to-port="1" />
		<edge from-layer="1630" from-port="0" to-layer="1633" to-port="0" />
		<edge from-layer="1631" from-port="0" to-layer="1632" to-port="1" />
		<edge from-layer="1632" from-port="2" to-layer="1633" to-port="1" />
		<edge from-layer="1633" from-port="2" to-layer="1642" to-port="2" />
		<edge from-layer="1634" from-port="0" to-layer="1637" to-port="0" />
		<edge from-layer="1635" from-port="0" to-layer="1636" to-port="1" />
		<edge from-layer="1636" from-port="2" to-layer="1637" to-port="1" />
		<edge from-layer="1637" from-port="2" to-layer="1642" to-port="3" />
		<edge from-layer="1638" from-port="0" to-layer="1641" to-port="0" />
		<edge from-layer="1639" from-port="0" to-layer="1640" to-port="1" />
		<edge from-layer="1640" from-port="2" to-layer="1641" to-port="1" />
		<edge from-layer="1641" from-port="2" to-layer="1642" to-port="4" />
		<edge from-layer="1642" from-port="5" to-layer="1644" to-port="0" />
		<edge from-layer="1643" from-port="0" to-layer="1644" to-port="1" />
		<edge from-layer="1644" from-port="2" to-layer="1645" to-port="0" />
		<edge from-layer="1645" from-port="2" to-layer="1646" to-port="0" />
		<edge from-layer="1645" from-port="2" to-layer="1655" to-port="0" />
		<edge from-layer="1646" from-port="1" to-layer="1650" to-port="0" />
		<edge from-layer="1646" from-port="1" to-layer="1658" to-port="0" />
		<edge from-layer="1647" from-port="0" to-layer="1650" to-port="1" />
		<edge from-layer="1648" from-port="0" to-layer="1650" to-port="2" />
		<edge from-layer="1649" from-port="0" to-layer="1650" to-port="3" />
		<edge from-layer="1650" from-port="4" to-layer="1652" to-port="0" />
		<edge from-layer="1651" from-port="0" to-layer="1652" to-port="1" />
		<edge from-layer="1652" from-port="2" to-layer="1654" to-port="0" />
		<edge from-layer="1653" from-port="0" to-layer="1654" to-port="1" />
		<edge from-layer="1654" from-port="2" to-layer="1655" to-port="1" />
		<edge from-layer="1655" from-port="2" to-layer="1662" to-port="0" />
		<edge from-layer="1656" from-port="0" to-layer="1658" to-port="1" />
		<edge from-layer="1657" from-port="0" to-layer="1658" to-port="2" />
		<edge from-layer="1658" from-port="3" to-layer="1659" to-port="1" />
		<edge from-layer="1659" from-port="2" to-layer="1660" to-port="1" />
		<edge from-layer="1660" from-port="2" to-layer="1665" to-port="0" />
		<edge from-layer="1660" from-port="2" to-layer="1662" to-port="1" />
		<edge from-layer="1661" from-port="0" to-layer="1662" to-port="2" />
		<edge from-layer="1662" from-port="3" to-layer="1664" to-port="0" />
		<edge from-layer="1663" from-port="0" to-layer="1664" to-port="1" />
		<edge from-layer="1664" from-port="2" to-layer="1666" to-port="0" />
		<edge from-layer="1665" from-port="1" to-layer="1666" to-port="1" />
		<edge from-layer="1666" from-port="2" to-layer="1669" to-port="0" />
		<edge from-layer="1667" from-port="0" to-layer="1669" to-port="1" />
		<edge from-layer="1668" from-port="0" to-layer="1669" to-port="2" />
		<edge from-layer="1669" from-port="3" to-layer="1671" to-port="0" />
		<edge from-layer="1670" from-port="0" to-layer="1671" to-port="1" />
		<edge from-layer="1671" from-port="2" to-layer="1673" to-port="0" />
		<edge from-layer="1672" from-port="0" to-layer="1673" to-port="2" />
		<edge from-layer="1673" from-port="3" to-layer="1675" to-port="0" />
		<edge from-layer="1674" from-port="0" to-layer="1675" to-port="2" />
		<edge from-layer="1675" from-port="3" to-layer="1678" to-port="2" />
		<edge from-layer="1676" from-port="0" to-layer="1677" to-port="2" />
		<edge from-layer="1677" from-port="3" to-layer="1678" to-port="3" />
		<edge from-layer="1678" from-port="4" to-layer="1682" to-port="0" />
		<edge from-layer="1679" from-port="0" to-layer="1682" to-port="1" />
		<edge from-layer="1680" from-port="0" to-layer="1682" to-port="2" />
		<edge from-layer="1681" from-port="0" to-layer="1682" to-port="3" />
		<edge from-layer="1682" from-port="4" to-layer="1684" to-port="1" />
		<edge from-layer="1683" from-port="0" to-layer="1684" to-port="2" />
		<edge from-layer="1684" from-port="3" to-layer="1721" to-port="1" />
		<edge from-layer="1684" from-port="3" to-layer="1718" to-port="0" />
		<edge from-layer="1684" from-port="3" to-layer="1968" to-port="0" />
		<edge from-layer="1684" from-port="3" to-layer="1886" to-port="0" />
		<edge from-layer="1684" from-port="3" to-layer="1930" to-port="0" />
		<edge from-layer="1684" from-port="3" to-layer="1932" to-port="0" />
		<edge from-layer="1684" from-port="3" to-layer="1970" to-port="0" />
		<edge from-layer="1684" from-port="3" to-layer="1686" to-port="0" />
		<edge from-layer="1684" from-port="3" to-layer="1688" to-port="0" />
		<edge from-layer="1684" from-port="3" to-layer="1691" to-port="0" />
		<edge from-layer="1684" from-port="3" to-layer="1693" to-port="0" />
		<edge from-layer="1685" from-port="0" to-layer="1686" to-port="2" />
		<edge from-layer="1686" from-port="3" to-layer="1689" to-port="0" />
		<edge from-layer="1687" from-port="0" to-layer="1688" to-port="2" />
		<edge from-layer="1688" from-port="3" to-layer="1689" to-port="1" />
		<edge from-layer="1689" from-port="2" to-layer="1695" to-port="0" />
		<edge from-layer="1690" from-port="0" to-layer="1691" to-port="2" />
		<edge from-layer="1691" from-port="3" to-layer="1694" to-port="0" />
		<edge from-layer="1692" from-port="0" to-layer="1693" to-port="2" />
		<edge from-layer="1693" from-port="3" to-layer="1694" to-port="1" />
		<edge from-layer="1694" from-port="2" to-layer="1695" to-port="1" />
		<edge from-layer="1695" from-port="2" to-layer="1696" to-port="0" />
		<edge from-layer="1696" from-port="1" to-layer="1699" to-port="0" />
		<edge from-layer="1697" from-port="0" to-layer="1698" to-port="0" />
		<edge from-layer="1698" from-port="1" to-layer="1699" to-port="1" />
		<edge from-layer="1699" from-port="2" to-layer="1700" to-port="0" />
		<edge from-layer="1700" from-port="1" to-layer="1703" to-port="0" />
		<edge from-layer="1701" from-port="0" to-layer="1702" to-port="0" />
		<edge from-layer="1702" from-port="1" to-layer="1703" to-port="1" />
		<edge from-layer="1703" from-port="2" to-layer="1706" to-port="0" />
		<edge from-layer="1704" from-port="0" to-layer="1705" to-port="0" />
		<edge from-layer="1705" from-port="1" to-layer="1706" to-port="1" />
		<edge from-layer="1706" from-port="2" to-layer="1707" to-port="0" />
		<edge from-layer="1707" from-port="1" to-layer="1708" to-port="0" />
		<edge from-layer="1708" from-port="1" to-layer="1709" to-port="0" />
		<edge from-layer="1709" from-port="1" to-layer="1711" to-port="0" />
		<edge from-layer="1710" from-port="0" to-layer="1711" to-port="1" />
		<edge from-layer="1711" from-port="2" to-layer="1762" to-port="0" />
		<edge from-layer="1711" from-port="2" to-layer="1795" to-port="0" />
		<edge from-layer="1711" from-port="2" to-layer="1828" to-port="0" />
		<edge from-layer="1711" from-port="2" to-layer="1723" to-port="0" />
		<edge from-layer="1711" from-port="2" to-layer="1712" to-port="0" />
		<edge from-layer="1712" from-port="1" to-layer="1753" to-port="0" />
		<edge from-layer="1713" from-port="0" to-layer="1714" to-port="0" />
		<edge from-layer="1714" from-port="1" to-layer="1720" to-port="0" />
		<edge from-layer="1715" from-port="0" to-layer="1718" to-port="1" />
		<edge from-layer="1716" from-port="0" to-layer="1718" to-port="2" />
		<edge from-layer="1717" from-port="0" to-layer="1718" to-port="3" />
		<edge from-layer="1718" from-port="4" to-layer="1719" to-port="0" />
		<edge from-layer="1719" from-port="1" to-layer="1720" to-port="1" />
		<edge from-layer="1720" from-port="2" to-layer="1721" to-port="0" />
		<edge from-layer="1721" from-port="2" to-layer="1842" to-port="0" />
		<edge from-layer="1721" from-port="2" to-layer="1809" to-port="0" />
		<edge from-layer="1721" from-port="2" to-layer="1776" to-port="0" />
		<edge from-layer="1721" from-port="2" to-layer="1733" to-port="0" />
		<edge from-layer="1722" from-port="0" to-layer="1723" to-port="1" />
		<edge from-layer="1723" from-port="2" to-layer="1724" to-port="0" />
		<edge from-layer="1724" from-port="1" to-layer="1726" to-port="0" />
		<edge from-layer="1725" from-port="0" to-layer="1726" to-port="1" />
		<edge from-layer="1726" from-port="2" to-layer="1729" to-port="0" />
		<edge from-layer="1727" from-port="0" to-layer="1729" to-port="1" />
		<edge from-layer="1728" from-port="0" to-layer="1729" to-port="2" />
		<edge from-layer="1729" from-port="3" to-layer="1731" to-port="0" />
		<edge from-layer="1730" from-port="0" to-layer="1731" to-port="1" />
		<edge from-layer="1731" from-port="2" to-layer="1756" to-port="0" />
		<edge from-layer="1731" from-port="2" to-layer="1733" to-port="1" />
		<edge from-layer="1732" from-port="0" to-layer="1733" to-port="2" />
		<edge from-layer="1733" from-port="3" to-layer="1736" to-port="0" />
		<edge from-layer="1733" from-port="3" to-layer="1739" to-port="0" />
		<edge from-layer="1734" from-port="0" to-layer="1736" to-port="1" />
		<edge from-layer="1735" from-port="0" to-layer="1736" to-port="2" />
		<edge from-layer="1736" from-port="3" to-layer="1748" to-port="1" />
		<edge from-layer="1737" from-port="0" to-layer="1739" to-port="1" />
		<edge from-layer="1738" from-port="0" to-layer="1739" to-port="2" />
		<edge from-layer="1739" from-port="3" to-layer="1746" to-port="1" />
		<edge from-layer="1739" from-port="3" to-layer="1746" to-port="2" />
		<edge from-layer="1739" from-port="3" to-layer="1740" to-port="0" />
		<edge from-layer="1740" from-port="1" to-layer="1743" to-port="0" />
		<edge from-layer="1741" from-port="0" to-layer="1743" to-port="1" />
		<edge from-layer="1742" from-port="0" to-layer="1743" to-port="2" />
		<edge from-layer="1743" from-port="3" to-layer="1745" to-port="0" />
		<edge from-layer="1744" from-port="0" to-layer="1745" to-port="1" />
		<edge from-layer="1745" from-port="2" to-layer="1746" to-port="0" />
		<edge from-layer="1746" from-port="3" to-layer="1747" to-port="0" />
		<edge from-layer="1747" from-port="1" to-layer="1748" to-port="2" />
		<edge from-layer="1748" from-port="3" to-layer="1760" to-port="2" />
		<edge from-layer="1748" from-port="3" to-layer="1749" to-port="0" />
		<edge from-layer="1749" from-port="1" to-layer="1752" to-port="0" />
		<edge from-layer="1750" from-port="0" to-layer="1752" to-port="1" />
		<edge from-layer="1751" from-port="0" to-layer="1752" to-port="2" />
		<edge from-layer="1752" from-port="3" to-layer="1753" to-port="1" />
		<edge from-layer="1753" from-port="2" to-layer="1754" to-port="1" />
		<edge from-layer="1754" from-port="2" to-layer="1760" to-port="0" />
		<edge from-layer="1755" from-port="0" to-layer="1756" to-port="1" />
		<edge from-layer="1756" from-port="2" to-layer="1758" to-port="0" />
		<edge from-layer="1757" from-port="0" to-layer="1758" to-port="1" />
		<edge from-layer="1758" from-port="2" to-layer="1760" to-port="1" />
		<edge from-layer="1759" from-port="0" to-layer="1760" to-port="3" />
		<edge from-layer="1760" from-port="4" to-layer="1793" to-port="0" />
		<edge from-layer="1761" from-port="0" to-layer="1762" to-port="1" />
		<edge from-layer="1762" from-port="2" to-layer="1763" to-port="0" />
		<edge from-layer="1763" from-port="1" to-layer="1765" to-port="0" />
		<edge from-layer="1764" from-port="0" to-layer="1765" to-port="1" />
		<edge from-layer="1765" from-port="2" to-layer="1768" to-port="0" />
		<edge from-layer="1766" from-port="0" to-layer="1768" to-port="1" />
		<edge from-layer="1767" from-port="0" to-layer="1768" to-port="2" />
		<edge from-layer="1768" from-port="3" to-layer="1770" to-port="0" />
		<edge from-layer="1769" from-port="0" to-layer="1770" to-port="1" />
		<edge from-layer="1770" from-port="2" to-layer="1772" to-port="0" />
		<edge from-layer="1770" from-port="2" to-layer="1776" to-port="1" />
		<edge from-layer="1771" from-port="0" to-layer="1772" to-port="1" />
		<edge from-layer="1772" from-port="2" to-layer="1774" to-port="0" />
		<edge from-layer="1773" from-port="0" to-layer="1774" to-port="1" />
		<edge from-layer="1774" from-port="2" to-layer="1793" to-port="1" />
		<edge from-layer="1775" from-port="0" to-layer="1776" to-port="2" />
		<edge from-layer="1776" from-port="3" to-layer="1782" to-port="0" />
		<edge from-layer="1776" from-port="3" to-layer="1779" to-port="0" />
		<edge from-layer="1777" from-port="0" to-layer="1779" to-port="1" />
		<edge from-layer="1778" from-port="0" to-layer="1779" to-port="2" />
		<edge from-layer="1779" from-port="3" to-layer="1791" to-port="1" />
		<edge from-layer="1780" from-port="0" to-layer="1782" to-port="1" />
		<edge from-layer="1781" from-port="0" to-layer="1782" to-port="2" />
		<edge from-layer="1782" from-port="3" to-layer="1789" to-port="1" />
		<edge from-layer="1782" from-port="3" to-layer="1783" to-port="0" />
		<edge from-layer="1782" from-port="3" to-layer="1789" to-port="2" />
		<edge from-layer="1783" from-port="1" to-layer="1786" to-port="0" />
		<edge from-layer="1784" from-port="0" to-layer="1786" to-port="1" />
		<edge from-layer="1785" from-port="0" to-layer="1786" to-port="2" />
		<edge from-layer="1786" from-port="3" to-layer="1788" to-port="0" />
		<edge from-layer="1787" from-port="0" to-layer="1788" to-port="1" />
		<edge from-layer="1788" from-port="2" to-layer="1789" to-port="0" />
		<edge from-layer="1789" from-port="3" to-layer="1790" to-port="0" />
		<edge from-layer="1790" from-port="1" to-layer="1791" to-port="2" />
		<edge from-layer="1791" from-port="3" to-layer="1793" to-port="2" />
		<edge from-layer="1792" from-port="0" to-layer="1793" to-port="3" />
		<edge from-layer="1793" from-port="4" to-layer="1826" to-port="0" />
		<edge from-layer="1794" from-port="0" to-layer="1795" to-port="1" />
		<edge from-layer="1795" from-port="2" to-layer="1796" to-port="0" />
		<edge from-layer="1796" from-port="1" to-layer="1798" to-port="0" />
		<edge from-layer="1797" from-port="0" to-layer="1798" to-port="1" />
		<edge from-layer="1798" from-port="2" to-layer="1801" to-port="0" />
		<edge from-layer="1799" from-port="0" to-layer="1801" to-port="1" />
		<edge from-layer="1800" from-port="0" to-layer="1801" to-port="2" />
		<edge from-layer="1801" from-port="3" to-layer="1803" to-port="0" />
		<edge from-layer="1802" from-port="0" to-layer="1803" to-port="1" />
		<edge from-layer="1803" from-port="2" to-layer="1809" to-port="1" />
		<edge from-layer="1803" from-port="2" to-layer="1805" to-port="0" />
		<edge from-layer="1804" from-port="0" to-layer="1805" to-port="1" />
		<edge from-layer="1805" from-port="2" to-layer="1807" to-port="0" />
		<edge from-layer="1806" from-port="0" to-layer="1807" to-port="1" />
		<edge from-layer="1807" from-port="2" to-layer="1826" to-port="1" />
		<edge from-layer="1808" from-port="0" to-layer="1809" to-port="2" />
		<edge from-layer="1809" from-port="3" to-layer="1812" to-port="0" />
		<edge from-layer="1809" from-port="3" to-layer="1815" to-port="0" />
		<edge from-layer="1810" from-port="0" to-layer="1812" to-port="1" />
		<edge from-layer="1811" from-port="0" to-layer="1812" to-port="2" />
		<edge from-layer="1812" from-port="3" to-layer="1824" to-port="1" />
		<edge from-layer="1813" from-port="0" to-layer="1815" to-port="1" />
		<edge from-layer="1814" from-port="0" to-layer="1815" to-port="2" />
		<edge from-layer="1815" from-port="3" to-layer="1822" to-port="1" />
		<edge from-layer="1815" from-port="3" to-layer="1816" to-port="0" />
		<edge from-layer="1815" from-port="3" to-layer="1822" to-port="2" />
		<edge from-layer="1816" from-port="1" to-layer="1819" to-port="0" />
		<edge from-layer="1817" from-port="0" to-layer="1819" to-port="1" />
		<edge from-layer="1818" from-port="0" to-layer="1819" to-port="2" />
		<edge from-layer="1819" from-port="3" to-layer="1821" to-port="0" />
		<edge from-layer="1820" from-port="0" to-layer="1821" to-port="1" />
		<edge from-layer="1821" from-port="2" to-layer="1822" to-port="0" />
		<edge from-layer="1822" from-port="3" to-layer="1823" to-port="0" />
		<edge from-layer="1823" from-port="1" to-layer="1824" to-port="2" />
		<edge from-layer="1824" from-port="3" to-layer="1826" to-port="2" />
		<edge from-layer="1825" from-port="0" to-layer="1826" to-port="3" />
		<edge from-layer="1826" from-port="4" to-layer="1859" to-port="0" />
		<edge from-layer="1827" from-port="0" to-layer="1828" to-port="1" />
		<edge from-layer="1828" from-port="2" to-layer="1829" to-port="0" />
		<edge from-layer="1829" from-port="1" to-layer="1831" to-port="0" />
		<edge from-layer="1830" from-port="0" to-layer="1831" to-port="1" />
		<edge from-layer="1831" from-port="2" to-layer="1834" to-port="0" />
		<edge from-layer="1832" from-port="0" to-layer="1834" to-port="1" />
		<edge from-layer="1833" from-port="0" to-layer="1834" to-port="2" />
		<edge from-layer="1834" from-port="3" to-layer="1836" to-port="0" />
		<edge from-layer="1835" from-port="0" to-layer="1836" to-port="1" />
		<edge from-layer="1836" from-port="2" to-layer="1838" to-port="0" />
		<edge from-layer="1836" from-port="2" to-layer="1842" to-port="1" />
		<edge from-layer="1837" from-port="0" to-layer="1838" to-port="1" />
		<edge from-layer="1838" from-port="2" to-layer="1840" to-port="0" />
		<edge from-layer="1839" from-port="0" to-layer="1840" to-port="1" />
		<edge from-layer="1840" from-port="2" to-layer="1859" to-port="1" />
		<edge from-layer="1841" from-port="0" to-layer="1842" to-port="2" />
		<edge from-layer="1842" from-port="3" to-layer="1848" to-port="0" />
		<edge from-layer="1842" from-port="3" to-layer="1845" to-port="0" />
		<edge from-layer="1843" from-port="0" to-layer="1845" to-port="1" />
		<edge from-layer="1844" from-port="0" to-layer="1845" to-port="2" />
		<edge from-layer="1845" from-port="3" to-layer="1857" to-port="1" />
		<edge from-layer="1846" from-port="0" to-layer="1848" to-port="1" />
		<edge from-layer="1847" from-port="0" to-layer="1848" to-port="2" />
		<edge from-layer="1848" from-port="3" to-layer="1855" to-port="2" />
		<edge from-layer="1848" from-port="3" to-layer="1855" to-port="1" />
		<edge from-layer="1848" from-port="3" to-layer="1849" to-port="0" />
		<edge from-layer="1849" from-port="1" to-layer="1852" to-port="0" />
		<edge from-layer="1850" from-port="0" to-layer="1852" to-port="1" />
		<edge from-layer="1851" from-port="0" to-layer="1852" to-port="2" />
		<edge from-layer="1852" from-port="3" to-layer="1854" to-port="0" />
		<edge from-layer="1853" from-port="0" to-layer="1854" to-port="1" />
		<edge from-layer="1854" from-port="2" to-layer="1855" to-port="0" />
		<edge from-layer="1855" from-port="3" to-layer="1856" to-port="0" />
		<edge from-layer="1856" from-port="1" to-layer="1857" to-port="2" />
		<edge from-layer="1857" from-port="3" to-layer="1859" to-port="2" />
		<edge from-layer="1858" from-port="0" to-layer="1859" to-port="3" />
		<edge from-layer="1859" from-port="4" to-layer="1861" to-port="0" />
		<edge from-layer="1860" from-port="0" to-layer="1861" to-port="1" />
		<edge from-layer="1861" from-port="2" to-layer="1864" to-port="0" />
		<edge from-layer="1862" from-port="0" to-layer="1863" to-port="0" />
		<edge from-layer="1863" from-port="1" to-layer="1864" to-port="1" />
		<edge from-layer="1864" from-port="2" to-layer="1867" to-port="0" />
		<edge from-layer="1865" from-port="0" to-layer="1866" to-port="0" />
		<edge from-layer="1866" from-port="1" to-layer="1867" to-port="1" />
		<edge from-layer="1867" from-port="2" to-layer="1868" to-port="0" />
		<edge from-layer="1868" from-port="1" to-layer="1871" to-port="0" />
		<edge from-layer="1869" from-port="0" to-layer="1870" to-port="0" />
		<edge from-layer="1870" from-port="1" to-layer="1871" to-port="1" />
		<edge from-layer="1871" from-port="2" to-layer="1874" to-port="0" />
		<edge from-layer="1872" from-port="0" to-layer="1873" to-port="0" />
		<edge from-layer="1873" from-port="1" to-layer="1874" to-port="1" />
		<edge from-layer="1874" from-port="2" to-layer="1875" to-port="0" />
		<edge from-layer="1875" from-port="1" to-layer="1877" to-port="0" />
		<edge from-layer="1876" from-port="0" to-layer="1877" to-port="1" />
		<edge from-layer="1877" from-port="2" to-layer="1880" to-port="0" />
		<edge from-layer="1877" from-port="2" to-layer="1913" to-port="0" />
		<edge from-layer="1878" from-port="0" to-layer="1879" to-port="0" />
		<edge from-layer="1879" from-port="1" to-layer="1880" to-port="1" />
		<edge from-layer="1880" from-port="2" to-layer="1883" to-port="0" />
		<edge from-layer="1881" from-port="0" to-layer="1882" to-port="0" />
		<edge from-layer="1882" from-port="1" to-layer="1883" to-port="1" />
		<edge from-layer="1883" from-port="2" to-layer="2086" to-port="0" />
		<edge from-layer="1883" from-port="2" to-layer="1884" to-port="0" />
		<edge from-layer="1884" from-port="1" to-layer="1891" to-port="0" />
		<edge from-layer="1885" from-port="0" to-layer="1891" to-port="1" />
		<edge from-layer="1886" from-port="1" to-layer="2015" to-port="0" />
		<edge from-layer="1886" from-port="1" to-layer="2008" to-port="0" />
		<edge from-layer="1886" from-port="1" to-layer="1889" to-port="0" />
		<edge from-layer="1886" from-port="1" to-layer="1918" to-port="0" />
		<edge from-layer="1887" from-port="0" to-layer="1889" to-port="1" />
		<edge from-layer="1888" from-port="0" to-layer="2015" to-port="2" />
		<edge from-layer="1888" from-port="0" to-layer="2008" to-port="2" />
		<edge from-layer="1888" from-port="0" to-layer="1889" to-port="2" />
		<edge from-layer="1888" from-port="0" to-layer="1918" to-port="2" />
		<edge from-layer="1889" from-port="3" to-layer="1891" to-port="2" />
		<edge from-layer="1890" from-port="0" to-layer="1891" to-port="3" />
		<edge from-layer="1891" from-port="4" to-layer="2094" to-port="0" />
		<edge from-layer="1891" from-port="4" to-layer="1895" to-port="0" />
		<edge from-layer="1892" from-port="0" to-layer="1895" to-port="1" />
		<edge from-layer="1893" from-port="0" to-layer="1895" to-port="2" />
		<edge from-layer="1894" from-port="0" to-layer="1895" to-port="3" />
		<edge from-layer="1895" from-port="4" to-layer="1897" to-port="0" />
		<edge from-layer="1896" from-port="0" to-layer="1897" to-port="1" />
		<edge from-layer="1897" from-port="2" to-layer="1910" to-port="0" />
		<edge from-layer="1897" from-port="2" to-layer="1900" to-port="0" />
		<edge from-layer="1898" from-port="0" to-layer="1899" to-port="0" />
		<edge from-layer="1899" from-port="1" to-layer="1900" to-port="1" />
		<edge from-layer="1900" from-port="2" to-layer="1901" to-port="0" />
		<edge from-layer="1901" from-port="1" to-layer="1903" to-port="0" />
		<edge from-layer="1902" from-port="0" to-layer="1903" to-port="1" />
		<edge from-layer="1903" from-port="2" to-layer="1906" to-port="0" />
		<edge from-layer="1904" from-port="0" to-layer="1906" to-port="1" />
		<edge from-layer="1905" from-port="0" to-layer="1906" to-port="2" />
		<edge from-layer="1906" from-port="3" to-layer="1908" to-port="0" />
		<edge from-layer="1907" from-port="0" to-layer="1908" to-port="1" />
		<edge from-layer="1908" from-port="2" to-layer="2103" to-port="1" />
		<edge from-layer="1908" from-port="2" to-layer="2048" to-port="1" />
		<edge from-layer="1908" from-port="2" to-layer="1910" to-port="1" />
		<edge from-layer="1909" from-port="0" to-layer="1910" to-port="2" />
		<edge from-layer="1910" from-port="3" to-layer="2077" to-port="0" />
		<edge from-layer="1911" from-port="0" to-layer="1912" to-port="0" />
		<edge from-layer="1912" from-port="1" to-layer="1913" to-port="1" />
		<edge from-layer="1913" from-port="2" to-layer="1916" to-port="0" />
		<edge from-layer="1914" from-port="0" to-layer="1915" to-port="0" />
		<edge from-layer="1915" from-port="1" to-layer="1916" to-port="1" />
		<edge from-layer="1916" from-port="2" to-layer="1921" to-port="0" />
		<edge from-layer="1917" from-port="0" to-layer="1918" to-port="1" />
		<edge from-layer="1918" from-port="3" to-layer="1920" to-port="0" />
		<edge from-layer="1919" from-port="0" to-layer="1920" to-port="1" />
		<edge from-layer="1920" from-port="2" to-layer="1921" to-port="1" />
		<edge from-layer="1921" from-port="2" to-layer="1925" to-port="0" />
		<edge from-layer="1921" from-port="2" to-layer="1963" to-port="0" />
		<edge from-layer="1921" from-port="2" to-layer="1987" to-port="0" />
		<edge from-layer="1921" from-port="2" to-layer="1949" to-port="0" />
		<edge from-layer="1922" from-port="0" to-layer="1925" to-port="1" />
		<edge from-layer="1923" from-port="0" to-layer="1925" to-port="2" />
		<edge from-layer="1924" from-port="0" to-layer="1925" to-port="3" />
		<edge from-layer="1925" from-port="4" to-layer="1928" to-port="0" />
		<edge from-layer="1926" from-port="0" to-layer="1927" to-port="0" />
		<edge from-layer="1927" from-port="1" to-layer="1928" to-port="1" />
		<edge from-layer="1928" from-port="2" to-layer="1936" to-port="0" />
		<edge from-layer="1929" from-port="0" to-layer="1930" to-port="2" />
		<edge from-layer="1930" from-port="3" to-layer="1933" to-port="0" />
		<edge from-layer="1931" from-port="0" to-layer="1932" to-port="2" />
		<edge from-layer="1932" from-port="3" to-layer="1933" to-port="1" />
		<edge from-layer="1932" from-port="3" to-layer="1940" to-port="0" />
		<edge from-layer="1933" from-port="2" to-layer="1935" to-port="0" />
		<edge from-layer="1933" from-port="2" to-layer="1939" to-port="0" />
		<edge from-layer="1934" from-port="0" to-layer="1935" to-port="1" />
		<edge from-layer="1935" from-port="2" to-layer="1955" to-port="1" />
		<edge from-layer="1935" from-port="2" to-layer="1936" to-port="1" />
		<edge from-layer="1936" from-port="2" to-layer="1943" to-port="0" />
		<edge from-layer="1937" from-port="0" to-layer="1938" to-port="0" />
		<edge from-layer="1938" from-port="1" to-layer="1939" to-port="1" />
		<edge from-layer="1939" from-port="2" to-layer="1940" to-port="1" />
		<edge from-layer="1940" from-port="2" to-layer="1942" to-port="0" />
		<edge from-layer="1941" from-port="0" to-layer="1942" to-port="1" />
		<edge from-layer="1942" from-port="2" to-layer="1943" to-port="1" />
		<edge from-layer="1943" from-port="2" to-layer="1998" to-port="0" />
		<edge from-layer="1943" from-port="2" to-layer="1957" to-port="0" />
		<edge from-layer="1944" from-port="0" to-layer="1945" to-port="0" />
		<edge from-layer="1945" from-port="1" to-layer="1956" to-port="0" />
		<edge from-layer="1946" from-port="0" to-layer="1949" to-port="1" />
		<edge from-layer="1947" from-port="0" to-layer="1949" to-port="2" />
		<edge from-layer="1948" from-port="0" to-layer="1949" to-port="3" />
		<edge from-layer="1949" from-port="4" to-layer="1952" to-port="0" />
		<edge from-layer="1950" from-port="0" to-layer="1951" to-port="0" />
		<edge from-layer="1951" from-port="1" to-layer="1952" to-port="1" />
		<edge from-layer="1952" from-port="2" to-layer="1953" to-port="0" />
		<edge from-layer="1953" from-port="1" to-layer="1954" to-port="0" />
		<edge from-layer="1954" from-port="1" to-layer="1955" to-port="0" />
		<edge from-layer="1955" from-port="2" to-layer="1956" to-port="1" />
		<edge from-layer="1956" from-port="2" to-layer="1998" to-port="1" />
		<edge from-layer="1956" from-port="2" to-layer="1957" to-port="1" />
		<edge from-layer="1957" from-port="2" to-layer="1959" to-port="0" />
		<edge from-layer="1958" from-port="0" to-layer="1959" to-port="1" />
		<edge from-layer="1959" from-port="2" to-layer="2004" to-port="0" />
		<edge from-layer="1960" from-port="0" to-layer="1963" to-port="1" />
		<edge from-layer="1961" from-port="0" to-layer="1963" to-port="2" />
		<edge from-layer="1962" from-port="0" to-layer="1963" to-port="3" />
		<edge from-layer="1963" from-port="4" to-layer="1966" to-port="0" />
		<edge from-layer="1964" from-port="0" to-layer="1965" to-port="0" />
		<edge from-layer="1965" from-port="1" to-layer="1966" to-port="1" />
		<edge from-layer="1966" from-port="2" to-layer="1974" to-port="0" />
		<edge from-layer="1967" from-port="0" to-layer="1968" to-port="2" />
		<edge from-layer="1968" from-port="3" to-layer="1971" to-port="0" />
		<edge from-layer="1969" from-port="0" to-layer="1970" to-port="2" />
		<edge from-layer="1970" from-port="3" to-layer="1978" to-port="0" />
		<edge from-layer="1970" from-port="3" to-layer="1971" to-port="1" />
		<edge from-layer="1971" from-port="2" to-layer="1973" to-port="0" />
		<edge from-layer="1971" from-port="2" to-layer="1977" to-port="0" />
		<edge from-layer="1972" from-port="0" to-layer="1973" to-port="1" />
		<edge from-layer="1973" from-port="2" to-layer="1974" to-port="1" />
		<edge from-layer="1973" from-port="2" to-layer="1993" to-port="1" />
		<edge from-layer="1974" from-port="2" to-layer="1981" to-port="0" />
		<edge from-layer="1975" from-port="0" to-layer="1976" to-port="0" />
		<edge from-layer="1976" from-port="1" to-layer="1977" to-port="1" />
		<edge from-layer="1977" from-port="2" to-layer="1978" to-port="1" />
		<edge from-layer="1978" from-port="2" to-layer="1980" to-port="0" />
		<edge from-layer="1979" from-port="0" to-layer="1980" to-port="1" />
		<edge from-layer="1980" from-port="2" to-layer="1981" to-port="1" />
		<edge from-layer="1981" from-port="2" to-layer="1995" to-port="0" />
		<edge from-layer="1981" from-port="2" to-layer="2001" to-port="0" />
		<edge from-layer="1982" from-port="0" to-layer="1983" to-port="0" />
		<edge from-layer="1983" from-port="1" to-layer="1994" to-port="0" />
		<edge from-layer="1984" from-port="0" to-layer="1987" to-port="1" />
		<edge from-layer="1985" from-port="0" to-layer="1987" to-port="2" />
		<edge from-layer="1986" from-port="0" to-layer="1987" to-port="3" />
		<edge from-layer="1987" from-port="4" to-layer="1990" to-port="0" />
		<edge from-layer="1988" from-port="0" to-layer="1989" to-port="0" />
		<edge from-layer="1989" from-port="1" to-layer="1990" to-port="1" />
		<edge from-layer="1990" from-port="2" to-layer="1991" to-port="0" />
		<edge from-layer="1991" from-port="1" to-layer="1992" to-port="0" />
		<edge from-layer="1992" from-port="1" to-layer="1993" to-port="0" />
		<edge from-layer="1993" from-port="2" to-layer="1994" to-port="1" />
		<edge from-layer="1994" from-port="2" to-layer="2001" to-port="1" />
		<edge from-layer="1994" from-port="2" to-layer="1995" to-port="1" />
		<edge from-layer="1995" from-port="2" to-layer="1997" to-port="0" />
		<edge from-layer="1996" from-port="0" to-layer="1997" to-port="1" />
		<edge from-layer="1997" from-port="2" to-layer="2004" to-port="1" />
		<edge from-layer="1998" from-port="2" to-layer="2000" to-port="0" />
		<edge from-layer="1999" from-port="0" to-layer="2000" to-port="1" />
		<edge from-layer="2000" from-port="2" to-layer="2004" to-port="2" />
		<edge from-layer="2001" from-port="2" to-layer="2003" to-port="0" />
		<edge from-layer="2002" from-port="0" to-layer="2003" to-port="1" />
		<edge from-layer="2003" from-port="2" to-layer="2004" to-port="3" />
		<edge from-layer="2004" from-port="4" to-layer="2006" to-port="0" />
		<edge from-layer="2005" from-port="0" to-layer="2006" to-port="1" />
		<edge from-layer="2006" from-port="2" to-layer="2012" to-port="0" />
		<edge from-layer="2007" from-port="0" to-layer="2008" to-port="1" />
		<edge from-layer="2008" from-port="3" to-layer="2011" to-port="0" />
		<edge from-layer="2009" from-port="0" to-layer="2011" to-port="1" />
		<edge from-layer="2010" from-port="0" to-layer="2011" to-port="2" />
		<edge from-layer="2011" from-port="3" to-layer="2012" to-port="1" />
		<edge from-layer="2012" from-port="2" to-layer="2017" to-port="0" />
		<edge from-layer="2013" from-port="0" to-layer="2017" to-port="1" />
		<edge from-layer="2014" from-port="0" to-layer="2015" to-port="1" />
		<edge from-layer="2015" from-port="3" to-layer="2017" to-port="2" />
		<edge from-layer="2016" from-port="0" to-layer="2017" to-port="3" />
		<edge from-layer="2017" from-port="4" to-layer="2031" to-port="0" />
		<edge from-layer="2017" from-port="4" to-layer="2039" to-port="0" />
		<edge from-layer="2017" from-port="4" to-layer="2021" to-port="0" />
		<edge from-layer="2018" from-port="0" to-layer="2021" to-port="1" />
		<edge from-layer="2019" from-port="0" to-layer="2021" to-port="2" />
		<edge from-layer="2020" from-port="0" to-layer="2021" to-port="3" />
		<edge from-layer="2021" from-port="4" to-layer="2024" to-port="0" />
		<edge from-layer="2022" from-port="0" to-layer="2023" to-port="0" />
		<edge from-layer="2023" from-port="1" to-layer="2024" to-port="1" />
		<edge from-layer="2024" from-port="2" to-layer="2025" to-port="0" />
		<edge from-layer="2025" from-port="2" to-layer="2027" to-port="0" />
		<edge from-layer="2026" from-port="0" to-layer="2027" to-port="1" />
		<edge from-layer="2027" from-port="2" to-layer="2038" to-port="0" />
		<edge from-layer="2028" from-port="0" to-layer="2031" to-port="1" />
		<edge from-layer="2029" from-port="0" to-layer="2031" to-port="2" />
		<edge from-layer="2030" from-port="0" to-layer="2031" to-port="3" />
		<edge from-layer="2031" from-port="4" to-layer="2034" to-port="0" />
		<edge from-layer="2032" from-port="0" to-layer="2033" to-port="0" />
		<edge from-layer="2033" from-port="1" to-layer="2034" to-port="1" />
		<edge from-layer="2034" from-port="2" to-layer="2035" to-port="0" />
		<edge from-layer="2035" from-port="2" to-layer="2037" to-port="0" />
		<edge from-layer="2036" from-port="0" to-layer="2037" to-port="1" />
		<edge from-layer="2037" from-port="2" to-layer="2038" to-port="1" />
		<edge from-layer="2038" from-port="2" to-layer="2040" to-port="0" />
		<edge from-layer="2039" from-port="1" to-layer="2040" to-port="1" />
		<edge from-layer="2040" from-port="2" to-layer="2044" to-port="0" />
		<edge from-layer="2041" from-port="0" to-layer="2044" to-port="1" />
		<edge from-layer="2042" from-port="0" to-layer="2044" to-port="2" />
		<edge from-layer="2043" from-port="0" to-layer="2044" to-port="3" />
		<edge from-layer="2044" from-port="4" to-layer="2046" to-port="0" />
		<edge from-layer="2045" from-port="0" to-layer="2046" to-port="1" />
		<edge from-layer="2046" from-port="2" to-layer="2048" to-port="0" />
		<edge from-layer="2047" from-port="0" to-layer="2048" to-port="2" />
		<edge from-layer="2048" from-port="3" to-layer="2052" to-port="0" />
		<edge from-layer="2048" from-port="3" to-layer="2059" to-port="0" />
		<edge from-layer="2048" from-port="3" to-layer="2061" to-port="0" />
		<edge from-layer="2048" from-port="3" to-layer="2079" to-port="0" />
		<edge from-layer="2048" from-port="3" to-layer="2050" to-port="0" />
		<edge from-layer="2049" from-port="0" to-layer="2050" to-port="2" />
		<edge from-layer="2050" from-port="3" to-layer="2053" to-port="0" />
		<edge from-layer="2051" from-port="0" to-layer="2052" to-port="2" />
		<edge from-layer="2052" from-port="3" to-layer="2053" to-port="1" />
		<edge from-layer="2053" from-port="2" to-layer="2056" to-port="0" />
		<edge from-layer="2054" from-port="0" to-layer="2055" to-port="0" />
		<edge from-layer="2055" from-port="1" to-layer="2056" to-port="1" />
		<edge from-layer="2056" from-port="2" to-layer="2057" to-port="0" />
		<edge from-layer="2057" from-port="1" to-layer="2067" to-port="0" />
		<edge from-layer="2058" from-port="0" to-layer="2059" to-port="2" />
		<edge from-layer="2059" from-port="3" to-layer="2062" to-port="0" />
		<edge from-layer="2060" from-port="0" to-layer="2061" to-port="2" />
		<edge from-layer="2061" from-port="3" to-layer="2062" to-port="1" />
		<edge from-layer="2062" from-port="2" to-layer="2065" to-port="0" />
		<edge from-layer="2063" from-port="0" to-layer="2064" to-port="0" />
		<edge from-layer="2064" from-port="1" to-layer="2065" to-port="1" />
		<edge from-layer="2065" from-port="2" to-layer="2066" to-port="0" />
		<edge from-layer="2066" from-port="1" to-layer="2067" to-port="1" />
		<edge from-layer="2067" from-port="2" to-layer="2068" to-port="0" />
		<edge from-layer="2068" from-port="1" to-layer="2070" to-port="0" />
		<edge from-layer="2069" from-port="0" to-layer="2070" to-port="1" />
		<edge from-layer="2070" from-port="2" to-layer="2073" to-port="0" />
		<edge from-layer="2071" from-port="0" to-layer="2073" to-port="1" />
		<edge from-layer="2072" from-port="0" to-layer="2073" to-port="2" />
		<edge from-layer="2073" from-port="3" to-layer="2075" to-port="0" />
		<edge from-layer="2074" from-port="0" to-layer="2075" to-port="1" />
		<edge from-layer="2075" from-port="2" to-layer="2105" to-port="1" />
		<edge from-layer="2075" from-port="2" to-layer="2077" to-port="1" />
		<edge from-layer="2075" from-port="2" to-layer="2079" to-port="1" />
		<edge from-layer="2076" from-port="0" to-layer="2077" to-port="2" />
		<edge from-layer="2077" from-port="3" to-layer="2112" to-port="0" />
		<edge from-layer="2077" from-port="3" to-layer="2106" to-port="3" />
		<edge from-layer="2078" from-port="0" to-layer="2079" to-port="2" />
		<edge from-layer="2079" from-port="3" to-layer="2118" to-port="0" />
		<edge from-layer="2079" from-port="3" to-layer="2106" to-port="1" />
		<edge from-layer="2079" from-port="3" to-layer="2080" to-port="0" />
		<edge from-layer="2080" from-port="1" to-layer="2082" to-port="0" />
		<edge from-layer="2081" from-port="0" to-layer="2082" to-port="1" />
		<edge from-layer="2082" from-port="2" to-layer="2084" to-port="0" />
		<edge from-layer="2083" from-port="0" to-layer="2084" to-port="1" />
		<edge from-layer="2084" from-port="2" to-layer="2106" to-port="0" />
		<edge from-layer="2085" from-port="0" to-layer="2091" to-port="0" />
		<edge from-layer="2086" from-port="1" to-layer="2089" to-port="0" />
		<edge from-layer="2087" from-port="0" to-layer="2089" to-port="1" />
		<edge from-layer="2088" from-port="0" to-layer="2089" to-port="2" />
		<edge from-layer="2089" from-port="3" to-layer="2091" to-port="1" />
		<edge from-layer="2090" from-port="0" to-layer="2091" to-port="2" />
		<edge from-layer="2091" from-port="3" to-layer="2093" to-port="0" />
		<edge from-layer="2092" from-port="0" to-layer="2093" to-port="1" />
		<edge from-layer="2093" from-port="2" to-layer="2095" to-port="0" />
		<edge from-layer="2094" from-port="1" to-layer="2095" to-port="1" />
		<edge from-layer="2095" from-port="2" to-layer="2099" to-port="0" />
		<edge from-layer="2096" from-port="0" to-layer="2099" to-port="1" />
		<edge from-layer="2097" from-port="0" to-layer="2099" to-port="2" />
		<edge from-layer="2098" from-port="0" to-layer="2099" to-port="3" />
		<edge from-layer="2099" from-port="4" to-layer="2101" to-port="0" />
		<edge from-layer="2100" from-port="0" to-layer="2101" to-port="1" />
		<edge from-layer="2101" from-port="2" to-layer="2103" to-port="0" />
		<edge from-layer="2102" from-port="0" to-layer="2103" to-port="2" />
		<edge from-layer="2103" from-port="3" to-layer="2105" to-port="0" />
		<edge from-layer="2104" from-port="0" to-layer="2105" to-port="2" />
		<edge from-layer="2105" from-port="3" to-layer="2115" to-port="0" />
		<edge from-layer="2105" from-port="3" to-layer="2106" to-port="2" />
		<edge from-layer="2106" from-port="4" to-layer="2110" to-port="0" />
		<edge from-layer="2107" from-port="0" to-layer="2110" to-port="1" />
		<edge from-layer="2108" from-port="0" to-layer="2110" to-port="2" />
		<edge from-layer="2109" from-port="0" to-layer="2110" to-port="3" />
		<edge from-layer="2110" from-port="4" to-layer="2112" to-port="1" />
		<edge from-layer="2110" from-port="4" to-layer="2115" to-port="1" />
		<edge from-layer="2110" from-port="4" to-layer="2118" to-port="1" />
		<edge from-layer="2111" from-port="0" to-layer="2112" to-port="2" />
		<edge from-layer="2112" from-port="3" to-layer="2113" to-port="0" />
		<edge from-layer="2114" from-port="0" to-layer="2115" to-port="2" />
		<edge from-layer="2115" from-port="3" to-layer="2116" to-port="0" />
		<edge from-layer="2117" from-port="0" to-layer="2118" to-port="2" />
		<edge from-layer="2118" from-port="3" to-layer="2121" to-port="0" />
		<edge from-layer="2119" from-port="0" to-layer="2121" to-port="1" />
		<edge from-layer="2120" from-port="0" to-layer="2121" to-port="2" />
		<edge from-layer="2121" from-port="3" to-layer="2123" to-port="0" />
		<edge from-layer="2121" from-port="6" to-layer="2144" to-port="0" />
		<edge from-layer="2121" from-port="5" to-layer="2139" to-port="0" />
		<edge from-layer="2121" from-port="4" to-layer="2131" to-port="0" />
		<edge from-layer="2122" from-port="0" to-layer="2123" to-port="1" />
		<edge from-layer="2123" from-port="2" to-layer="2127" to-port="0" />
		<edge from-layer="2124" from-port="0" to-layer="2125" to-port="0" />
		<edge from-layer="2125" from-port="1" to-layer="2126" to-port="0" />
		<edge from-layer="2126" from-port="2" to-layer="2140" to-port="1" />
		<edge from-layer="2126" from-port="2" to-layer="2127" to-port="1" />
		<edge from-layer="2127" from-port="2" to-layer="2129" to-port="0" />
		<edge from-layer="2128" from-port="0" to-layer="2129" to-port="1" />
		<edge from-layer="2129" from-port="2" to-layer="2148" to-port="0" />
		<edge from-layer="2130" from-port="0" to-layer="2131" to-port="1" />
		<edge from-layer="2131" from-port="2" to-layer="2135" to-port="0" />
		<edge from-layer="2132" from-port="0" to-layer="2133" to-port="0" />
		<edge from-layer="2133" from-port="1" to-layer="2134" to-port="0" />
		<edge from-layer="2134" from-port="2" to-layer="2135" to-port="1" />
		<edge from-layer="2134" from-port="2" to-layer="2145" to-port="1" />
		<edge from-layer="2135" from-port="2" to-layer="2137" to-port="0" />
		<edge from-layer="2136" from-port="0" to-layer="2137" to-port="1" />
		<edge from-layer="2137" from-port="2" to-layer="2148" to-port="1" />
		<edge from-layer="2138" from-port="0" to-layer="2139" to-port="1" />
		<edge from-layer="2139" from-port="2" to-layer="2140" to-port="0" />
		<edge from-layer="2140" from-port="2" to-layer="2142" to-port="0" />
		<edge from-layer="2141" from-port="0" to-layer="2142" to-port="1" />
		<edge from-layer="2142" from-port="2" to-layer="2148" to-port="2" />
		<edge from-layer="2143" from-port="0" to-layer="2144" to-port="1" />
		<edge from-layer="2144" from-port="2" to-layer="2145" to-port="0" />
		<edge from-layer="2145" from-port="2" to-layer="2147" to-port="0" />
		<edge from-layer="2146" from-port="0" to-layer="2147" to-port="1" />
		<edge from-layer="2147" from-port="2" to-layer="2148" to-port="3" />
		<edge from-layer="2148" from-port="4" to-layer="2149" to-port="0" />
	</edges>
	<rt_info>
		<MO_version value="2022.3.0-9052-9752fafe8eb-releases/2022/3" />
		<Runtime_version value="2022.3.0-9052-9752fafe8eb-releases/2022/3" />
		<conversion_parameters>
			<data_type value="FP16" />
			<framework value="onnx" />
			<input_model value="DIR/FasterRCNN.onnx" />
			<input_shape value="[1,3, 626, 1622]" />
			<mean_values value="[123.675, 116.28 , 103.53]" />
			<model_name value="FasterRCNN" />
			<output_dir value="/home/henry/Desktop/UIT/TrafficSign/model/test" />
			<scale_values value="[58.395, 57.12 , 57.375]" />
		</conversion_parameters>
		<legacy_frontend value="False" />
	</rt_info>
</net>
